hybrid_hybrid_agent_20250619_174725_best.pt (torch, 982503 bytes, 48 tensors)

player_embedder.0.weight f4 [64, 3]
000000 5b 80 b2 3d ba 6a 93 3d 14 5c e1 3d 1f 6f 0b 3e
       0.08715888 0.07198091 0.11003891 0.13616608
000010 b9 ff 70 b9 db fd 6d bc 34 60 d7 3d 94 82 8a be
       -0.00022983448 -0.014525856 0.10516396 -0.27052748
000020 4d e8 ad 3d 4f 06 be bb 9a 11 6b 3e 62 00 05 be
       0.084915735 -0.005799092 0.22955933 -0.12988427
000030 1f 32 90 3d 3d af fe 3d 3b f9 13 3d db 21 70 be
       0.0704081 0.12435768 0.036126357 -0.23450415
000040 7f cf 0c 3c f1 c9 59 3d 11 5e b8 3d 1f 01 d9 3d
       0.008594393 0.053171102 0.09002317 0.10595917
000050 7b 88 24 3d 8f d3 3b be bd da fa 3d a4 8f d6 3d
       0.04016922 -0.18342422 0.12248752 0.10476616
000060 83 c8 e5 3d 5e d5 c8 3b e0 fb 87 be ac ab 8c 3d
       0.11219885 0.006128951 -0.26559353 0.06868681
000070 af 4e 12 bd 74 1a db 3c 9f ce 19 bd 34 0e 84 3d
       -0.03571957 0.026746012 -0.037550565 0.064480215
000080 ad 58 61 3e 26 3b f9 3d 8c 00 08 3e c3 55 14 be
       0.22006483 0.12169485 0.13281459 -0.1448584
000090 32 4b 48 3e f2 83 0a be 4f 1b 45 bd a8 08 13 3e
       0.19559935 -0.13526896 -0.048121747 0.14358771
0000a0 31 9b f3 3d ac 21 7d 3b c0 f7 57 3d 89 5a 47 be
       0.11894835 0.0038624806 0.052726507 -0.1946813
0000b0 ba ec cd 3d 43 47 27 3e 3d ef 15 3e 38 16 e5 bd
       0.10054918 0.16335778 0.14642043 -0.111858785
0000c0 72 4b de 3c a5 0b 0b 3d 05 f7 0f 3e b4 d8 48 3e
       0.027135585 0.033946652 0.14059074 0.19613916
0000d0 3c c1 44 3d f0 db b5 bd f5 67 48 3d fb 95 36 3d
       0.048035845 -0.088798404 0.048927266 0.044576626
0000e0 8e d1 21 39 7b 8b 77 bd a7 bc 43 3e 9f 67 d0 3d
       0.00015432222 -0.060435753 0.19114934 0.10176014
0000f0 05 fe b9 bc 8b 17 d6 3d c8 8e be 3b 58 4e 3a bd
       -0.022704134 0.10453709 0.0058153607 -0.04548487
000100 de 9c 85 bd 33 28 4d 3e da ab 68 bd 92 b4 08 3e
       -0.06524061 0.20034866 -0.056804515 0.13350132
000110 79 d1 a1 bb 04 b4 aa bd 24 17 44 bd 44 a3 37 3e
       -0.004938301 -0.083351165 -0.04787363 0.17933375
000120 fd c9 aa 3c ec ce 28 3d 42 1c f0 bb f1 d8 14 3d
       0.020848269 0.04121296 -0.0073275873 0.036339704
000130 0c 1d 82 bb d3 56 bd 3d 49 8e 9b bd 56 98 9b 3d
       -0.003970748 0.09245076 -0.07595498 0.07597415
000140 8a d6 1d 3d de 2c c7 3d 1e ed 19 3d 90 b3 b4 3c
       0.03853468 0.097253546 0.03757965 0.022058278
000150 65 3a 23 be 6c 39 75 3d 9f 7e 0e 3e 76 49 9e 3d
       -0.15940244 0.059869215 0.1391549 0.07728855
000160 79 9e 45 3d 02 34 41 bc b0 56 88 bd b0 2f 3d 3e
       0.048246834 -0.011792185 -0.06657159 0.18475223
000170 63 87 8e 3d 5d 84 4f 3d 1d 22 53 be 2a 0f 2d 3e
       0.06959417 0.05066334 -0.20618482 0.16900316
000180 c9 b6 5b 3d 7e ba 35 bd e2 09 cb 3d e4 69 b9 3d
       0.053641114 -0.044367306 0.09913994 0.090534
000190 39 9f 3f be c1 8a 7a 3d cd 97 69 3c 06 83 88 be
       -0.18713082 0.061167482 0.0142573835 -0.26662463
0001a0 09 fe 4e 3e e5 d3 dd bb 89 34 dd 3d 26 7e 78 bd
       0.20214094 -0.0067696446 0.10801036 -0.06066718
0001b0 25 9a be 3c 60 f7 5a bc 6d 96 bb 3d 01 a7 20 3d
       0.023266861 -0.013364643 0.09159551 0.039221767
0001c0 cc 97 89 bc 38 75 03 bd 22 18 41 3d 4b 65 b2 bd
       -0.016796015 -0.03209421 0.047142155 -0.08710726
0001d0 03 27 ef 3d 71 bd 3a 3d 54 04 0c 3e bc 97 f7 bc
       0.11677363 0.04559082 0.13673526 -0.03022372
0001e0 50 e9 51 3e 60 38 17 be 6c b6 35 bb ad 0b 90 3d
       0.20499158 -0.14767599 -0.002772714 0.07033477
0001f0 18 35 72 bd d8 27 84 bc f2 1d 2d 3e 11 e0 23 bd
       -0.059132665 -0.01613228 0.16905954 -0.04000861
000200 e0 e1 2e be 54 79 04 be 3a ad 09 3e a7 c3 0b 3e
       -0.17078352 -0.12936908 0.13444987 0.13648854
000210 80 66 3a 3e 83 5e fe 3d 58 1b d2 bd 4f bd dc 3d
       0.18203163 0.124203704 -0.10259122 0.10778295
000220 28 c1 83 bd b4 7f 13 3c 77 63 14 3e 60 21 0c 3d
       -0.06433326 0.009002615 0.14491068 0.034211516
000230 29 33 ce bc fb 4e 00 3c bd 32 dd 3d 96 f1 07 3e
       -0.02517088 0.00783133 0.10800693 0.13275751
000240 9e f6 82 bd 9c f7 37 3d 29 7b 24 3d 56 f9 83 3d
       -0.06394695 0.044913873 0.040156517 0.064440414
000250 44 25 c0 3d d8 a5 0d 3d d2 12 b0 3d 50 12 24 3c
       0.09382108 0.03458199 0.0859734 0.010014132
000260 3f e1 e4 3d e3 5f a8 3b 74 27 51 bd 34 5b c1 3b
       0.11175775 0.0051383837 -0.051063016 0.005900765
000270 45 9a de 3c 4d c7 20 bd 22 8e 66 3d 38 07 b6 bb
       0.02717317 -0.039252568 0.056287892 -0.0055550598
000280 63 c3 fb 3a 02 a0 06 3e a3 a6 35 3d eb f7 d3 bc
       0.001920801 0.13146976 0.04434837 -0.025875052
000290 d2 06 08 3e fa 47 82 bd 91 00 44 bd 2d 80 0a 3e
       0.13283852 -0.06361385 -0.047852103 0.13525458
0002a0 b9 c3 9e 3d f9 eb a0 3c ff 87 68 bd b2 06 f1 3d
       0.07752175 0.01964377 -0.05677032 0.11768855
0002b0 85 b3 1d be b8 be f5 3d 29 8a f5 3d 49 c1 1e 3d
       -0.15400513 0.11999267 0.119892426 0.03875855
0002c0 fc 44 4f bd 71 a2 29 3d 84 f9 90 bb bf d9 e8 bb
       -0.050602898 0.04141468 -0.004424276 -0.0071060355
0002d0 c8 96 a6 bc f8 2b 0c 3e 11 13 0b bd d3 f7 12 3e
       -0.02033557 0.13688648 -0.03395373 0.1435235
0002e0 20 f3 b1 3d df 3b 1a 3e cf bc a9 3d c9 5c e4 3c
       0.086889505 0.15061902 0.082879655 0.027876275
0002f0 ce 15 77 bd 2f 6b ef 3c d2 4a ac bd d8 8c 15 3e
       -0.06032353 0.029225914 -0.08412708 0.14604509

player_embedder.0.bias f4 [64]
000000 2d b9 2d bd 0b 51 8f 3d ba 8d 71 3c bd 09 db 3b
       -0.042412926 0.069978796 0.014743263 0.0066845105
000010 23 fb c1 ba a1 99 b7 3d e3 a9 42 bd ac 9a 4d 3c
       -0.0014799576 0.08964849 -0.047525298 0.012549084
000020 1e 91 85 3d 4f d5 cc ba 55 98 10 bd 54 74 53 3c
       0.065218195 -0.0015627536 -0.035301525 0.012906153
000030 0f df 6d 3d fc 7b 72 bd 3f d4 66 3d a4 e9 30 bd
       0.058074053 -0.059200272 0.056354757 -0.043191567
000040 9c d8 15 bd 43 de 31 bd a8 d4 e4 3b c9 3b 9d 3c
       -0.036583528 -0.043424856 0.0069833584 0.019193547
000050 77 b5 28 3d de dc a4 38 24 dc de 3d da 72 c7 3d
       0.041188683 7.861269e-05 0.10881832 0.09738703
000060 ca f6 29 3d 6b 46 54 bc 5d 2b 33 bb 64 a3 64 bd
       0.041495122 -0.012956242 -0.002733908 -0.055819884
000070 e7 f9 3d 3c 3a fc fc bb c5 60 71 3a a5 45 69 ba
       0.011595226 -0.0077204974 0.000920784 -0.00088986225
000080 4f 49 c3 3c 5b 8c 26 3d ba ec cb 3c 96 f2 00 3d
       0.023838667 0.040661197 0.024893153 0.031481348
000090 58 b1 8d 3d 1b 5d ae 3d 60 0b 00 3d 82 ea d4 bb
       0.06918591 0.08513852 0.031260848 -0.006497682
0000a0 cf b1 66 bd 91 a6 f7 3c f1 44 f9 3c fa e4 9c 3c
       -0.056321915 0.030230792 0.030428382 0.019152153
0000b0 c0 7e 6b bd 77 cf 05 bd 51 1c 01 bc e0 84 4d bd
       -0.057493925 -0.032668557 -0.007880286 -0.050175548
0000c0 f0 94 be 3c b8 b1 51 3c 63 36 ad 3c e7 f7 be 3d
       0.023264378 0.012798719 0.021144098 0.09324627
0000d0 7e 8e c5 3d f7 f7 67 3c cd 19 65 bc 21 4b 74 3d
       0.09646319 0.0141582405 -0.013983202 0.05964196
0000e0 e3 21 c3 3c 0f b6 b8 bc a5 60 65 bc fd 2f 08 3d
       0.02381987 -0.02254775 -0.014000093 0.03324889
0000f0 2f 17 0c 3d 38 13 78 bd 3c b8 2d bc 75 55 f5 3c
       0.034201797 -0.060565203 -0.010603007 0.029947976

player_embedder.1.weight f4 [64]
000000 2b ff 6f 3f 23 ff 6b 3f 95 f5 ac 3f bb 55 9e 3f
       0.9374873 0.9218618 1.3512446 1.2369913
000010 3c 62 60 3f bd 64 bc 3f 9f fa 59 3f ae d5 ab 3f
       0.87649894 1.4718243 0.8514804 1.3424585
000020 a2 15 a1 3f 9b c2 80 3f 51 ed 8c 3f c0 0a 8b 3f
       1.2584727 1.0059389 1.1009923 1.0862656
000030 ce 29 86 3f f6 34 70 3f 04 c3 8f 3f d3 32 74 3f
       1.0481508 0.9383081 1.1231389 0.9539005
000040 2a 0b 63 3f 50 61 7d 3f d3 a0 65 3f 3f 6c 73 3f
       0.8868891 0.9897661 0.89698523 0.95087045
000050 ec da 69 3f 58 6c a6 3f 8e 01 84 3f e2 d0 89 3f
       0.91349673 1.3001814 1.0312974 1.0766871
000060 9b 81 5d 3f 44 21 6c 3f 72 20 89 3f f9 64 6f 3f
       0.8652589 0.9223826 1.0713027 0.9351345
000070 17 d5 b0 3f cb 56 6b 3f bd f7 81 3f 01 42 b8 3f
       1.381503 0.9192931 1.0153729 1.4395143
000080 75 fb 58 3f cb c9 85 3f 74 ff b3 3f 5a 4a 9b 3f
       0.8475869 1.0452207 1.4062333 1.2132065
000090 00 d4 68 3f 35 35 6a 3f 04 5e 78 3f 30 21 66 3f
       0.90948486 0.9148744 0.97018456 0.8989439
0000a0 d0 ce 99 3f 3b 7f 63 3f 6d 1b 8e 3f 47 ca 82 3f
       1.2016239 0.88866013 1.110212 1.021798
0000b0 a6 24 80 3f 3e 90 8a 3f 19 b4 5c 3f 13 9a 7a 3f
       1.0011184 1.0825269 0.8621231 0.9789135
0000c0 5a 3f 8c 3f d8 8b 64 3f 74 8c 6d 3f 92 a1 80 3f
       1.0956833 0.89275885 0.9279244 1.0049307
0000d0 69 1d 75 3f 43 e8 75 3f bc 30 6b 3f 85 b7 8d 3f
       0.95748 0.9605753 0.9187124 1.1071631
0000e0 01 39 69 3f b7 b3 85 3f 89 f4 7e 3f 29 4a 62 3f
       0.91102606 1.044547 0.9959188 0.8839441
0000f0 3b 98 6f 3f d6 76 71 3f 31 41 81 3f da 35 7b 3f
       0.9359166 0.94321954 1.009802 0.98129046

player_embedder.1.bias f4 [64]
000000 58 bc 8b bd bc ee d5 bd dd cc 82 3c a8 e9 46 3d
       -0.06823033 -0.104459256 0.015966827 0.048562676
000010 32 e0 a2 bd a9 93 3d 3d 54 b5 b2 bd 85 ee aa 3d
       -0.07952918 0.046283398 -0.08725992 0.08346275
000020 d6 e0 86 3c bd fd 31 bd 4f 67 a4 bc 40 a7 c1 bc
       0.016464632 -0.043454874 -0.020068793 -0.023639321
000030 10 8b 2f bc d6 04 da bc 2f 8c 84 bc 93 9e 85 bd
       -0.010714307 -0.026613634 -0.016180126 -0.06524386
000040 59 c9 d5 bd 9f 6f 27 bc f7 45 8a bd 05 11 68 bd
       -0.10438795 -0.010219484 -0.06751626 -0.056656856
000050 0e 5f b3 bd c6 d2 3e 3a 97 de a8 bb 6d 2b 88 bc
       -0.087583646 0.00072793325 -0.005153488 -0.01662227
000060 b2 ec 19 bd fc 36 80 bd 9f 12 01 bd 55 96 8e bd
       -0.037579246 -0.062604874 -0.0315119 -0.06962267
000070 c1 6d ad 3d 64 65 b4 bd bb 4c 1b bd cc ed 22 3d
       0.084681995 -0.08808401 -0.037914973 0.039777562
000080 43 69 50 bd 31 83 35 bd 33 e5 21 3c ab 2e aa 3c
       -0.050881635 -0.044314567 0.0098813055 0.020774206
000090 d7 ec 92 bd cc a5 1c 3d b8 20 52 bd 85 c6 bd bd
       -0.0717408 0.038244054 -0.051300734 -0.0926638
0000a0 6a 85 99 3c 6d 32 2f be 5e c5 9d 3c b5 db fb bc
       0.018740375 -0.1710908 0.019259151 -0.030744413
0000b0 43 42 0f bd 60 d7 bf bb 0f 57 96 bd 17 dc ac bd
       -0.0349753 -0.005854532 -0.07340824 -0.08440416
0000c0 80 81 39 bc 4a aa e5 bd 86 6c a6 bd 53 a5 a9 3c
       -0.011322379 -0.11214121 -0.08126168 0.020708716
0000d0 a3 a6 49 bd 47 fe a8 3c 19 9a 9b bd cf 30 e7 bc
       -0.049231183 0.020629061 -0.07597751 -0.028221516
0000e0 9a a9 f3 bd c6 c9 15 bd 53 a2 09 bd ff 1d f0 bd
       -0.11897583 -0.03656938 -0.03360207 -0.11724471
0000f0 ef b8 8f bd 53 3e ab bd 76 43 37 bc 00 87 c6 bd
       -0.07017695 -0.08361497 -0.011185518 -0.09693718

player_embedder.3.weight f4 [64, 64]
000000 f7 f1 db bd e3 f9 8e bd ff 2f 95 be b7 1f 9e 3d
       -0.107395105 -0.06981256 -0.2913818 0.07720893
000010 5a 6b 01 be 06 56 28 be 8e 1c 35 3d 8c 24 85 be
       -0.12638608 -0.16439065 0.044216685 -0.26004446
000020 93 63 c3 3c 95 21 29 3d ae 10 be bc 88 b2 93 3d
       0.023851192 0.041291792 -0.023201313 0.072117865
000030 2f d8 1b 3e 11 0f 4c 3d d7 0f 87 3d f0 b5 a9 bd
       0.15219186 0.049819056 0.06594818 -0.08286655
000040 f1 df e9 3c 2f 3f c0 3b 38 d8 58 bd 71 c1 84 3d
       0.028549166 0.005866907 -0.052940577 0.064822085
000050 32 2b 52 3d 6a fe b1 3c 20 5f 07 bd 7b bc 37 bd
       0.051310726 0.02172776 -0.033049703 -0.044857483
000060 50 10 bb bd 07 bc b4 bd 8f 35 0c 3d 33 e8 8f bd
       -0.09133971 -0.08824926 0.034230765 -0.0702671
000070 f5 64 d5 bd 55 b4 16 3d 5f 20 f8 3d 78 f3 bc be
       -0.10419647 0.03679307 0.12115549 -0.36904502
000080 c1 64 b5 3d ed 44 2b 3e 56 37 9b bd 46 bb 02 3e
       0.08857108 0.16725512 -0.07578914 0.12766752
000090 af 66 b0 bc 21 e7 b3 bd 72 42 eb 3d 60 79 a5 bd
       -0.021533338 -0.08784319 0.11487283 -0.08079791
0000a0 e1 9e 89 3d ef 3b 6e 3d 7a bc 09 3e 0b 61 50 3e
       0.06719757 0.058162626 0.13450804 0.20349519
0000b0 98 fc 8e bd 3d 0c be bc 16 6e 94 3c a5 f6 82 bd
       -0.06981772 -0.023199195 0.0181189 -0.063947
0000c0 90 26 cb 3c f9 fa 7b 3d c7 7e 91 3d 6d a4 a4 bb
       0.024798661 0.061518643 0.07104259 -0.005024484
0000d0 49 10 23 bd 34 e2 c0 3b 25 3b b5 3d c8 01 c4 3d
       -0.039810453 0.0058863405 0.088491715 0.09570652
0000e0 66 d0 02 bd 86 af 25 3d 95 37 1a 3d 6a 79 93 bb
       -0.031937025 0.040450595 0.037650663 -0.0045005577
0000f0 5f b7 6d bd dc 26 f9 3a d2 0b c9 bd ad d6 25 3d
       -0.058036204 0.0019008773 -0.09816708 0.040487934
000100 69 4e e6 bd 3d 3b 31 3d f7 26 6a 3e 17 37 c0 3d
       -0.11245424 0.043269385 0.22866426 0.093855076
000110 6b c8 32 bd e9 f1 28 3d dc ea 3b 3d d3 ff 63 be
       -0.043648165 0.04124633 0.045878276 -0.22265558
000120 16 44 e6 3d 93 49 d1 3d c4 3c da 3c 6c b5 e5 bc
       0.11243455 0.10219111 0.026640303 -0.02804061
000130 a5 ba cf 3d ca 4c 8e 3c 26 62 c1 bd 74 73 ba 3d
       0.101430215 0.0173706 -0.094425485 0.09104052
000140 d0 cf b2 bd f1 af 6a 3c db 03 a7 3d 26 d8 9c 3d
       -0.08731043 0.014324174 0.08155032 0.076584145
000150 c8 8f 85 bc 4e 11 22 3e c5 70 9e bb 2c cf ac 3c
       -0.016303912 0.15826914 -0.0048352205 0.021094881
000160 73 42 e2 3d a4 4f e4 bd 2c 0a 5e 3c 0c 59 af bc
       0.110478304 -0.11148003 0.01355223 -0.021404766
000170 d6 a6 83 be b6 b6 be 3c 10 86 f6 3d 25 3b 70 3e
       -0.25713223 0.023280483 0.12037289 0.23460062
000180 39 b5 96 bc bf 4d df 3d d6 57 8b 3e 55 71 e6 bc
       -0.01839696 0.10903501 0.2721545 -0.028130213
000190 84 ad 1d bd dd 92 e2 bd 0a ab 17 3c 6a 4e 7e 3d
       -0.038495556 -0.11063168 0.0092570875 0.0620865
0001a0 a8 d0 1a bd d5 aa a1 bd 23 fd bd 3c cf 1e 84 bb
       -0.037796646 -0.07893912 0.023191994 -0.004031993
0001b0 32 5b d1 bc e9 4b 7d bd 09 5d 79 3c bb 8c e1 3d
       -0.02555618 -0.06183997 0.015219935 0.1101317
0001c0 c3 0f e0 bc d6 a2 f2 3c 17 79 a0 3c e4 ee 6e 3c
       -0.027351266 0.029618662 0.01958899 0.014583323
0001d0 1e 7b 65 bd f8 00 9e bc a3 d1 a9 bd 64 9b e1 3d
       -0.056025617 -0.019287571 -0.08291938 0.110159665
0001e0 70 fc 6a 3d 7d e7 f3 3d e6 e8 4c bd 53 b1 73 bd
       0.05736965 0.11909387 -0.050026797 -0.05949528
0001f0 32 32 5c bd 01 07 2c bd cd 1e 11 be d1 3d 1c 3e
       -0.053758807 -0.041998867 -0.14171906 0.15257956
000200 fc 05 62 3d 70 8f 8c bc 2a 4d 59 3e ed 50 8c 3e
       0.05518149 -0.01715824 0.21220842 0.2740549
000210 21 f4 66 bd bc f4 e4 be 2a 97 d4 bd f5 9d b6 bd
       -0.056385163 -0.44717968 -0.10380395 -0.08916847
000220 31 1d 2f 3e b8 b6 aa bc a5 80 08 bb f8 78 46 bd
       0.1710098 -0.02083908 -0.0020828631 -0.04845521
000230 b7 f3 92 3d b5 2c bd bd b1 3d 12 3e 27 b9 88 3d
       0.07175391 -0.09237043 0.14281346 0.0667594
000240 b8 dc 71 bd ab ef f4 3c 6d c4 11 bb d5 3a 03 3e
       -0.059048384 0.029899439 -0.0022242323 0.12815411
000250 16 fd 7c 3d 0b d4 0a bd 13 fc 32 3e 8b c6 d7 bd
       0.0617648 -0.033893626 0.17478971 -0.10535916
000260 02 dc 7c 3d 91 de 36 3d 0a 01 bb bd fd 7d 64 bd
       0.061733253 0.04464585 -0.091310576 -0.055784214
000270 66 4c 3c be f2 5b 96 3d 6f 02 14 bd 8f 2c eb 3c
       -0.18388519 0.07341756 -0.036135133 0.02870777
000280 5a ff ab 3c b7 a0 29 3d f4 d5 b1 3e 01 e3 4f 3b
       0.020995785 0.041413035 0.34733546 0.0031720998
000290 08 89 13 bd e8 e2 ec 3c ce df ac bd b7 86 9c 3d
       -0.036019355 0.028916791 -0.08441125 0.07642882
0002a0 ac b8 e7 bd 10 4f 10 3e e1 d1 f6 bd 6d aa 99 3d
       -0.1131452 0.1409266 -0.1205175 0.07503209
0002b0 98 7e 2e bd 4b 0c 8c 3d e2 99 b8 bd 6a 01 59 3d
       -0.042601198 0.06838282 -0.09013726 0.052979864
0002c0 d6 97 fd bd ed d0 cc 3c 43 b2 45 bd 80 d4 3e 3d
       -0.12382476 0.025001967 -0.048265707 0.046589375
0002d0 71 81 00 3d 25 09 bc 3d 24 cd 40 3d 8d 95 19 bc
       0.031373445 0.09181432 0.047070637 -0.009374035
0002e0 dd cb ee 3d d8 b8 f3 3d a1 bd 8e bd 29 de c6 3d
       0.116599776 0.119004905 -0.069697626 0.097103424
0002f0 f8 8f d3 3d 78 8f 0c 3d 24 7a a8 bb 74 2a 33 3e
       0.10330194 0.03431651 -0.0051415134 0.17496663
000300 3a 64 38 bc f0 05 d4 3d 51 87 ed 3d 12 e0 b7 bd
       -0.011254365 0.10352695 0.11598075 -0.08978285
000310 8d c2 54 bd 6b 02 92 be 0d d5 2d bd 3e 1a 1b be
       -0.05194335 -0.2851747 -0.04243951 -0.1514673
000320 02 e2 00 3d e6 72 aa 3d 51 45 b7 bb d0 65 6a bd
       0.031465538 0.083226964 -0.00559298 -0.057226002
000330 8b c7 ef 3d 8e 89 04 be ce cb ef bd 4b d9 dd bd
       0.11707982 -0.12943098 -0.117087945 -0.10832461
000340 4c 0a 90 3c af c4 cb bc a1 d8 64 bd b5 ef 89 bd
       0.017583035 -0.02487406 -0.055870656 -0.067351736
000350 5c 1a 6d 3d 08 a9 7e 3c 39 d7 49 3d 81 6e 8d bd
       0.057886466 0.01554323 0.049277518 -0.069058426
000360 1a 4f a4 3c cd b6 ef bc 44 4a 99 bd 93 ce af bd
       0.02005725 -0.02926197 -0.07484868 -0.08584323
000370 ae b6 ee bd c0 c7 18 3e a1 0d 9b 3c 23 3e ce 3a
       -0.11655937 0.14919949 0.018927397 0.0015735071
000380 b1 27 c4 3c 41 fd 03 bd 55 16 5e 3c 36 ff cb bc
       0.023944708 -0.032223944 0.013555129 -0.024901967
000390 36 66 87 3d 27 1b 0c 3e ac c0 70 3d 61 45 e5 bb
       0.06611292 0.13682233 0.058777496 -0.006996796
0003a0 18 4a 11 be 17 11 0d 3e 5e 01 01 3e 64 29 61 3d
       -0.14188421 0.1377605 0.12598178 0.054971114
0003b0 8e 30 2d bd 3d c4 b5 3d b2 4e 78 3d 05 c7 d2 bb
       -0.042282633 0.0887532 0.060621925 -0.0064324164
0003c0 bf 0c 0c bc 24 76 be 3c c9 dd 18 3d 80 de 9d bd
       -0.008547961 0.023249693 0.037320886 -0.07708454
0003d0 30 0d 75 3c b5 02 87 3d ca 68 3d 3d 2b 05 62 3d
       0.014956757 0.06592313 0.046242513 0.05518071
0003e0 c9 7b b9 3d 7d 14 73 bd b2 6e 1d 3c 29 dd 25 bc
       0.09056813 -0.05934571 0.009608911 -0.0101235295
0003f0 0e 11 9c 3c e9 d3 f3 3a de 1e e9 3d d1 ec 18 be
       0.019051101 0.0018602583 0.113828406 -0.14934088

player_embedder.3.bias f4 [64]
000000 d6 18 d2 ba 65 0f d3 3b de ce 5f 3b 6b d8 a4 bb
       -0.001602913 0.006441044 0.0034150402 -0.005030682
000010 18 6d f5 bb 5a 61 71 3b ff 14 cc 3c d0 07 f6 bb
       -0.0074898116 0.0036831708 0.024912355 -0.0075082555
000020 36 f4 b1 b9 20 31 b4 bb f7 0a 38 bc 49 c7 18 be
       -0.00033942022 -0.00549902 -0.011233083 -0.14919771
000030 88 09 af 3c 56 57 f5 ba 4c 9e cb 3b 7b e1 9e 3a
       0.02136685 -0.0018718045 0.006213939 0.0012121642
000040 f5 48 b9 ba 2e e4 93 b9 54 fb 0b 3c 1a 4e 60 3b
       -0.0014136123 -0.00028208032 0.008543808 0.003422624
000050 48 99 c4 3d 38 ec 92 bc 7d 07 df b9 18 da 32 bc
       0.095995486 -0.017934904 -0.00042539454 -0.010916255
000060 1d e2 af 3b 40 28 1a 3b a3 be 1c bc c9 37 ec 3c
       0.005367531 0.0023522526 -0.009566936 0.028835194
000070 80 75 4b 3c b4 d6 4e 3b ad 5a 9c bb 07 8d 38 bc
       0.012418151 0.0031561079 -0.0047715516 -0.011264092
000080 be 33 0d 3b 4a 84 8d bb e6 db 9c bb 09 b5 69 bc
       0.0021545733 -0.0043187486 -0.004786956 -0.014264354
000090 4c 13 bd bc 61 d1 05 3b 23 86 d1 3b 4c 1c 47 3c
       -0.02308049 0.002041899 0.006394164 0.012152743
0000a0 3e f0 1d 3c 71 af 70 3c f3 80 97 3c d1 b4 79 bc
       0.009639798 0.014690266 0.018494105 -0.015240864
0000b0 2e c9 ce bd 28 23 b1 bb 2e 84 9f 3c d0 ae cb b9
       -0.10096966 -0.0054058023 0.019472208 -0.00038849423
0000c0 19 35 03 bc 27 66 f4 3a 58 4d 4e 3a 71 20 5e bc
       -0.008008265 0.0018646166 0.00078698015 -0.013557539
0000d0 f6 28 f9 bb 95 5a 5a 38 eb a2 01 3c 85 c1 39 bc
       -0.00760376 5.205961e-05 0.007912378 -0.011337643
0000e0 01 f0 57 3a a1 f6 30 3b 3b a0 5e 3c c4 f2 3f ba
       0.00082373625 0.002700247 0.013588007 -0.00073222467
0000f0 33 fc 6d 3b fa 01 5a 3c b3 71 7b 3b 2b ef aa 3d
       0.0036313653 0.013306135 0.003836733 0.08346399

player_embedder.4.weight f4 [64]
000000 bc ea 8a 3f 76 28 74 3f d8 98 87 3f ec 3c 70 3f
       1.0852885 0.9537424 1.0593519 0.9384296
000010 e2 e3 61 3f 11 a8 68 3f 94 b1 5c 3f fa 0d 75 3f
       0.88238347 0.9088145 0.8620846 0.9572445
000020 d1 e5 71 3f ea 3e 6c 3f 8b 66 7e 3f 2f f3 73 3f
       0.94491297 0.922835 0.9937522 0.95292944
000030 03 aa 86 3f 4f d3 65 3f 00 bc 84 3f c1 7d 87 3f
       1.0520633 0.89775556 1.0369873 1.0585252
000040 42 4e 85 3f 4a 36 84 3f 8a 33 8b 3f e8 63 7a 3f
       1.0414507 1.0329068 1.0875103 0.97808695
000050 a5 73 69 3f 1d c5 6a 3f 44 d3 80 3f c8 55 6c 3f
       0.91192085 0.9170702 1.0064473 0.9231839
000060 4b df 9f 3f 56 cf 75 3f f5 7e 76 3f 58 7b 60 3f
       1.2490019 0.96019495 0.9628747 0.8768821
000070 04 1c 6a 3f dc 40 71 3f c7 c1 6b 3f a1 d8 79 3f
       0.91449 0.9423959 0.92092556 0.97596174
000080 8b 5d 80 3f ad 93 7d 3f 65 6c 6b 3f c8 2c 6d 3f
       1.0028547 0.9905346 0.9196227 0.92646456
000090 e2 56 68 3f 18 1c 69 3f ac d5 96 3f 01 90 52 3f
       0.9075757 0.9105849 1.1783957 0.8225098
0000a0 ea 01 76 3f af a2 8d 3f 08 61 50 3f 2e 85 7f 3f
       0.9609667 1.1065272 0.8139806 0.9981259
0000b0 78 9a 6b 3f d1 cf 8d 3f e9 ca 6b 3f c4 70 6a 3f
       0.92032576 1.1079046 0.9210649 0.91578317
0000c0 2f 69 86 3f fe 65 90 3f ac 37 91 3f b6 ac 5c 3f
       1.050085 1.1281126 1.1345115 0.86201036
0000d0 08 9c 6f 3f 3c e3 85 3f f7 b3 71 3f 2d ad 63 3f
       0.9359746 1.0459971 0.9441523 0.8893612
0000e0 52 1c 8c 3f 9b e5 88 3f b4 3d 6f 3f d3 33 73 3f
       1.0946143 1.069507 0.93453526 0.9500095
0000f0 03 33 91 3f c7 98 8c 3f f2 37 6f 3f cc 22 58 3f
       1.1343693 1.0984124 0.9344474 0.84428096

player_embedder.4.bias f4 [64]
000000 82 16 0a bd e0 c1 b4 bc ef 59 45 bd b9 e5 04 bd
       -0.03371287 -0.022065103 -0.04818147 -0.032445643
000010 9a 2e 8b bd d0 18 1e bc 98 0d fb 3d f2 bf 82 39
       -0.06795998 -0.00964947 0.12258452 0.00024938543
000020 27 a0 6e 3d e2 65 aa bb a8 6e 95 3b 4c f3 af 3d
       0.058258202 -0.0052001337 0.0045603104 0.08591327
000030 47 8f 8b 3d 0b 2b a1 bc f1 ad 20 3a 79 b3 62 bc
       0.06814437 -0.019673845 0.0006129435 -0.013836735
000040 b3 fe 84 bc aa 87 f8 3c 86 2a ca bb bf e0 4d 3d
       -0.016234731 0.030338127 -0.00616962 0.050263163
000050 ad ea e6 bd 18 6b a4 3d 3b 84 f4 3c 32 ff 16 bd
       -0.112752296 0.08028239 0.029848209 -0.036864467
000060 3a 13 a0 bd 7b 60 89 bc ae 36 8b bb 12 66 0a 3e
       -0.07816167 -0.016769638 -0.0042484617 0.13515499
000070 23 67 c9 bd df 33 75 3c 86 47 7b 3c 9d 07 2d bc
       -0.09834125 0.01496598 0.015336877 -0.010560897
000080 c2 6f e6 3b 47 07 62 3b af 8c cf bc 65 39 c2 bd
       0.0070323655 0.00344892 -0.025335638 -0.094836034
000090 47 21 e7 bd 05 1b a1 bc a7 97 a3 bc 63 ce 55 3d
       -0.11285644 -0.019666204 -0.019969774 0.05219878
0000a0 22 db cf 3c 78 d5 e3 3c 31 ce 79 3d b4 dd 4a bd
       0.025373045 0.02781175 0.060987655 -0.04952784
0000b0 a8 22 f4 3d f3 b8 e8 3c c0 24 51 3d a7 3d 1d bd
       0.11920673 0.028408503 0.05106044 -0.038388874
0000c0 69 75 08 bd 5a 32 3c bd 81 46 02 bd 6e e4 1f be
       -0.033315096 -0.045946456 -0.03180552 -0.15614483
0000d0 8b c0 04 bc a3 3f f5 ba 56 fa dc bc bf 0f b5 bd
       -0.008102546 -0.0018710982 -0.026974838 -0.08840894
0000e0 d2 5c 84 3d a8 4d cb 3d 9f f2 20 3d 83 7e 87 bc
       0.064630166 0.09926921 0.03929388 -0.016539818
0000f0 05 27 54 bd 43 3a 87 bc b6 fb d3 3a f4 25 3b be
       -0.051795024 -0.016507274 0.0016173038 -0.18276197

enemy_embedder.0.weight f4 [64, 7]
000000 e7 f9 d1 3d cf 2e a0 3d 24 c7 ca 3c 46 cc 30 3e
       0.10252743 0.07821428 0.02475316 0.17265424
000010 03 21 06 be c0 87 fc bd 45 72 fe bd ab 4d 83 3d
       -0.1309853 -0.1233058 -0.12424139 0.06411298
000020 40 41 6f 3d b6 26 06 3c 8b 3b 88 3d 5f c5 1c 3c
       0.058411837 0.00818794 0.06651982 0.009568541
000030 8d f6 0d bd b7 af cf 3d 07 42 81 3e 0b 9e a6 bd
       -0.034658957 0.10140937 0.25245687 -0.08135613
000040 a6 ba 94 3d 91 ae 07 3e c9 1d 0a 3e e2 d6 ce bd
       0.07262163 0.13250186 0.13487925 -0.100995794
000050 39 52 8f bd 4a 5f 5a be c7 bd 30 3e e3 7a 8e bc
       -0.069981046 -0.21325412 0.17259894 -0.017392581
000060 2e 65 2d bd ff 9f d0 3d b0 bf 8a bd db ce 65 3d
       -0.04233282 0.10186767 -0.06774843 0.056105476
000070 6f 00 a6 bd 21 b7 d7 bd 72 83 18 3d bc ad 0b 3e
       -0.081055515 -0.10532976 0.03723473 0.13640493
000080 c2 48 89 be df 99 04 3e c6 72 ca 3d dc 4c b4 be
       -0.26813322 0.12949322 0.098851725 -0.3521489
000090 84 02 88 3e 93 fe 8c bd b6 6b 3c 3d e6 44 93 3e
       0.2656442 -0.06884494 0.04600116 0.28763503
0000a0 c8 17 fb bd 42 40 96 3c e6 7d a3 be 6d 83 dd bd
       -0.12260395 0.018341187 -0.3193199 -0.10816083
0000b0 d4 2c ba bc 33 9f 8b bc 1d 7b 6c 3e 46 9f f2 bd
       -0.022726454 -0.017043686 0.23093839 -0.11846785
0000c0 91 78 0e 3b 0c ea 0f 3c 6a 62 2c be a4 52 01 bd
       0.0021739344 0.0087838285 -0.16834417 -0.031572953
0000d0 b8 58 a0 bd 78 63 29 3e f1 3e fc 3d c2 3c dc 3b
       -0.07829422 0.1654185 0.123166926 0.00672111
0000e0 c6 f6 03 bd af ca 44 bd 9a 01 ef 3d ba 32 79 3d
       -0.032217763 -0.048044857 0.11670227 0.060839392
0000f0 d5 82 43 3c 25 72 56 bc d7 91 4e 3d ec 2d 0c 3e
       0.011933048 -0.013088738 0.050432052 0.13689393
000100 2a 61 2a bd 84 cd 1f bb 15 84 14 be 0d dd 28 3e
       -0.04159657 -0.0024383971 -0.1450351 0.16490574
000110 04 a8 fe 3c c9 37 25 3e 9f 41 a8 3d c4 2d d6 3d
       0.031085975 0.16134562 0.08215641 0.10457948
000120 ef 19 17 be b5 ec 6d bd 58 cc cf 3c 08 b6 31 3d
       -0.14755987 -0.05808707 0.025365993 0.04338649
000130 cc ee 0d bd 74 6b f7 3d 8a 97 47 be f2 79 ba 3b
       -0.034651563 0.12081042 -0.19491401 0.0056908065
000140 ef c0 20 bc 17 2b 07 3e 30 64 13 3e 36 a2 8b 3c
       -0.009811624 0.13200031 0.14393687 0.017045122
000150 75 7b 92 3c 23 3e ab 3e 06 e9 4e bd 66 b6 2e bc
       0.017881135 0.33445844 -0.050515197 -0.010663604
000160 37 b0 ef bd 1c 7b 20 be c4 4f 9b 3d fa c8 3e be
       -0.11703532 -0.15671962 0.075835735 -0.18631354
000170 e5 81 95 bd ab 9e dc bd 3d e5 1f 3e 79 3f 0f 3e
       -0.07300166 -0.10772451 0.15614791 0.13989057
000180 b0 ed 95 bd f9 ff 79 3d d0 96 a0 bd 12 54 95 3e
       -0.07320726 0.06103513 -0.07841265 0.29165703
000190 50 d7 73 3d 83 ef 62 3d 7d c1 6b 3d 1e 79 1d 3e
       0.05953151 0.055404197 0.05755757 0.15378234
0001a0 17 c9 52 3c f9 92 aa 3d a9 07 21 3e 90 1d 1a be
       0.012865326 0.08328814 0.15725578 -0.1505034
0001b0 5e d1 bf 3c 79 7a 04 3e 5d 47 be bc 14 d5 97 3a
       0.023415264 0.12937345 -0.023227388 0.0011583888
0001c0 cd ee 18 be c8 80 66 be 78 10 fb 3a 45 80 f6 bc
       -0.14934845 -0.22510064 0.0019154688 -0.03009046
0001d0 0c b7 f3 3d e3 e6 e1 bd 66 de c8 3d 64 5f d1 bc
       0.11900148 -0.11030366 0.09808044 -0.025558181
0001e0 d6 37 a3 bd db aa fb 3d 47 14 0c 3e df 82 19 be
       -0.07969634 0.122884475 0.1367961 -0.1499133
0001f0 cc 6f c9 bd ed 58 08 be cd 0b ac bd 5c 23 32 be
       -0.09835777 -0.13315172 -0.08400688 -0.17396301
000200 8e e5 d2 bd ab 46 08 3e 56 a1 0b be 65 e6 ae 3d
       -0.1029769 0.13308208 -0.13635764 0.08540038
000210 f9 1e 55 3d aa 22 dd bd 2b 5e 15 3e 02 48 ff 3d
       0.05203149 -0.10797627 0.14586703 0.12464906
000220 1c 14 e9 bd 1d de 6c 3d 42 cb 04 be 1e 47 15 be
       -0.11380789 0.05782901 -0.12968162 -0.1457791
000230 c8 2e d0 bd b6 5a 3d 3e ed 1f 51 3c 63 bb c9 3b
       -0.10165173 0.18491635 0.012763959 0.0061563714
000240 b9 89 c1 bd 0f 46 d1 3d dd 9a cf bd ba f4 59 3e
       -0.09450097 0.10218441 -0.1013696 0.21284762
000250 ea ab ae bd 4e 3e 95 3d 7d 49 e3 3d 0e cf 8d 3d
       -0.08528884 0.07287274 0.11098001 0.06924258
000260 6e 6f 84 bc 01 3c ad 3a ce d5 e3 3d d7 e0 dc bd
       -0.016166415 0.0013216735 0.111247644 -0.10785072
000270 4f bf 2b bd cc 59 9a 3d 85 ae 00 be 87 93 9a 3d
       -0.041930493 0.07536659 -0.12566574 0.0754767
000280 c7 1b 09 be d9 97 f5 3d 45 3e 10 be 2b bf cf 3d
       -0.13389502 0.11991853 -0.14086254 0.10143884
000290 f3 be 8b 3d 4f 28 8d 3e a2 cf b7 3c ab 96 10 be
       0.0682353 0.27569816 0.022437874 -0.14119975
0002a0 59 35 fc 3d c7 32 2d be 88 a9 d3 bc 06 c1 01 3e
       0.12314863 -0.16913901 -0.025837675 0.12671289
0002b0 0c 5b 92 bd 01 a4 e0 3c 6d f7 d2 3d 92 f7 1a be
       -0.07146272 0.027421953 0.10301099 -0.15133503
0002c0 2c e3 f0 bd ce 1e 1f be 93 c8 26 bd 34 66 84 3e
       -0.117620796 -0.15539095 -0.040718626 0.25859225
0002d0 45 a9 89 3c 8d d0 fb 3d 9a 57 4a 3d 45 83 eb 3c
       0.016804347 0.12295637 0.04939995 0.028749118
0002e0 d1 f8 05 3d f7 af 57 3d a8 f5 98 3d a0 50 97 bd
       0.032707993 0.052658048 0.0746873 -0.07388425
0002f0 df 62 04 3e 79 5e 83 3d 03 0d a5 bc 83 0e 00 3e
       0.12928341 0.064145036 -0.020147806 0.12505536
000300 81 bf 55 bd a1 11 02 be 3e b5 1f be f9 e8 a6 bb
       -0.052184585 -0.12702037 -0.15596482 -0.0050936905
000310 ff 47 67 be 8f 4f 76 be 72 2d db 3d 28 20 ef 3c
       -0.22586058 -0.24053787 0.107020274 0.029190138
000320 0b c6 d4 3c 20 f5 bd 3d 2a 14 fe bc 88 a2 a3 3d
       0.02597334 0.092752695 -0.031015474 0.07989985
000330 8b b6 77 3e 0e 7f ae 3d 02 0a 55 3c 46 8a 1d be
       0.24190728 0.085203275 0.013002874 -0.15384778
000340 3f 53 83 bd 11 fa 01 3d 3e e0 99 3d 2a a2 0f 3e
       -0.06412362 0.031732623 0.07513474 0.14026704
000350 d8 e8 67 bd 0b 29 9c 3d 93 67 6e 3d 2f 0e 2d 3d
       -0.05661854 0.07625016 0.058204245 0.042249855
000360 5e 97 9f 3d 3f 5c 18 3d 3b bb 4f 3e 48 b8 e5 3a
       0.07792543 0.037197348 0.20286267 0.0017526234
000370 d8 f3 a9 3d f2 2a 2d be cc e9 11 be dc 4c 4b 3c
       0.08298463 -0.16910914 -0.14249343 0.012408461
000380 66 41 3e 3d 52 d1 08 3e 68 67 0d 3d 68 d3 b5 3d
       0.046449088 0.133611 0.034522444 0.08878213
000390 38 84 7c 3e 24 38 6f bc de ec dc 3d 3e b5 28 3e
       0.24659812 -0.014600787 0.10787366 0.16475388
0003a0 d6 77 d4 3c 76 c2 95 3d ea de 64 3d 42 66 a6 3d
       0.025936048 0.07312481 0.05587665 0.08124973
0003b0 e1 5c 32 bb d8 54 dc 3d ae a4 55 bd d7 38 1a be
       -0.0027216005 0.1075837 -0.052159004 -0.15060745
0003c0 c7 b1 58 3c fa 04 b7 3d 8c 4d af be 0b af e9 3d
       0.013225979 0.08936496 -0.3423885 0.1141034
0003d0 53 f1 17 3d 04 14 01 be d1 87 3a 3d a9 1f e0 bc
       0.03709538 -0.12605292 0.04553968 -0.027358847
0003e0 93 0d 38 3e 1e c6 88 3e 7a b8 90 bd e2 18 98 bd
       0.17973928 0.2671365 -0.07066436 -0.07426621
0003f0 91 84 00 3d c5 f9 0c be 08 34 b6 3c 8b fb f9 3c
       0.031376425 -0.13767155 0.022241607 0.030515453

enemy_embedder.0.bias f4 [64]
000000 86 bf f4 bb 0c 0a c1 bc 29 2c ce bb 8c 1b 8e 3a
       -0.0074691204 -0.023564361 -0.0062918854 0.001084195
000010 b7 fc 78 3d c9 ea ca bc 0f 6c e7 3b 92 27 21 3c
       0.060787883 -0.024770157 0.007062442 0.009836094
000020 aa aa 3a bd 50 73 b4 3b 7b b4 0e 3e 27 7b 20 bb
       -0.045572914 0.0055069104 0.13936035 -0.0024487467
000030 ee 8b 93 3b e2 d5 06 bc f6 b1 36 bd 65 da 97 3d
       0.004502765 -0.008229705 -0.04460331 0.07414702
000040 f4 21 12 3c 29 42 3a 3d 47 51 e7 38 0c a0 39 3d
       0.008919228 0.04547325 0.000110300774 0.04531865
000050 2e 6e 0b 3d f7 70 6a bc 77 df 82 3d 24 2d 44 3c
       0.034040622 -0.0143091595 0.06390279 0.011973653
000060 f7 a6 31 3c 8e 26 f8 bc 39 9e 2e bd 37 39 22 3d
       0.01084303 -0.030291822 -0.04263136 0.039605346
000070 14 3d 81 3b 96 61 8b 3d f9 cc 04 3d ae 23 88 3d
       0.0039440487 0.068057224 0.03242204 0.0664743
000080 78 d3 c1 bd 2a 0d a2 bd 46 37 d0 3c 53 2c 00 bd
       -0.094641626 -0.07912667 0.025416981 -0.03129227
000090 2c 3d 31 3d 85 24 37 3b 8f a5 86 3d 7f a4 20 bd
       0.04327123 0.0027945351 0.065745465 -0.039219376
0000a0 90 2f 97 3c 09 99 2b 3c a0 8d fc bb 12 e6 ef 3d
       0.018455297 0.010473498 -0.0077073127 0.11713804
0000b0 48 6a 80 bc 86 73 43 3d 0b b0 82 3b c3 2c 93 bc
       -0.015675679 0.047717594 0.003988271 -0.01796568
0000c0 e7 1f 1b bd 8f 88 1d 3c e6 5d 12 bd 13 97 ca bc
       -0.03787222 0.009615078 -0.03573408 -0.02473024
0000d0 44 c1 b4 3d 41 bd 0d bb f6 05 b6 bc b4 37 81 3c
       0.08825925 -0.0021627697 -0.02221964 0.015773632
0000e0 51 5c bd 3c db c1 ac ba 4b 48 55 3c 87 a4 f0 bc
       0.023115309 -0.0013180332 0.013017724 -0.029375328
0000f0 64 0d 15 3b 41 6d 2c 3d 7c 08 07 bb 52 2e 9b 3d
       0.0022743577 0.04209638 -0.0020604422 0.07577194

enemy_embedder.1.weight f4 [64]
000000 2c fd 97 3f d8 5e 58 3f c1 31 7a 3f 29 be 95 3f
       1.1874137 0.8451972 0.9773217 1.1698657
000010 62 ad 74 3f 0f 5c 98 3f 59 0b 90 3f 28 02 99 3f
       0.9557706 1.1903094 1.1253463 1.1953783
000020 f3 7f 6a 3f de 30 79 3f a7 f6 9a 3f a8 a2 85 3f
       0.91601485 0.9734019 1.2106522 1.0440264
000030 96 f4 91 3f 92 3d 78 3f 20 8e 89 3f b4 24 9c 3f
       1.1402767 0.9696895 1.0746498 1.2198701
000040 30 2e 79 3f 1f b8 7b 3f 87 a5 85 3f a5 b8 9d 3f
       0.973361 0.9832782 1.044114 1.2321974
000050 0f 21 98 3f 7f 9a 6e 3f 34 c1 a2 3f aa ad 90 3f
       1.1885089 0.9320449 1.2715211 1.1302998
000060 88 e7 63 3f a8 fb 9d 3f 00 77 5d 3f eb 59 80 3f
       0.89025164 1.2342424 0.86509705 1.0027441
000070 42 cd 86 3f 88 60 76 3f a0 dc 6c 3f 00 da 85 3f
       1.053139 0.96241045 0.9252415 1.0457153
000080 a4 dd 7c 3f 38 17 69 3f 82 3d 89 3f 3a 87 9f 3f
       0.98775697 0.91051054 1.0721896 1.2463143
000090 82 b5 86 3f 32 21 83 3f 54 b9 8b 3f 6c 76 71 3f
       1.0524142 1.0244505 1.0915933 0.9432132
0000a0 fb f0 85 3f b4 8d 9d 3f a9 82 82 3f 78 e2 a5 3f
       1.0464166 1.2308869 1.0196124 1.2959738
0000b0 21 39 8e 3f 46 1b 86 3f 2d 59 8b 3f f8 ff 74 3f
       1.1111184 1.0477073 1.0886589 0.9570308
0000c0 49 ff 64 3f ff 51 89 3f 69 58 7b 3f 5c 60 9e 3f
       0.89452034 1.0728148 0.9818178 1.2373157
0000d0 67 0c 72 3f 6c 30 78 3f 33 bd 93 3f f0 15 85 3f
       0.94550174 0.96948886 1.1542114 1.039732
0000e0 c0 67 67 3f 9e 19 82 3f ba 68 a8 3f 1f 57 93 3f
       0.90392685 1.0164068 1.315696 1.1510962
0000f0 1d 0e 99 3f a8 bd 66 3f ae 0c 7e 3f a6 30 7a 3f
       1.1957432 0.9013314 0.992381 0.9773048

enemy_embedder.1.bias f4 [64]
000000 d5 3c 49 bd 6e 5a c8 bd 26 5f 7f bd 2d dc b3 bd
       -0.04913028 -0.09782873 -0.0623466 -0.087822296
000010 31 7c a7 bd 32 86 88 bd f5 63 63 bd 2d 47 96 bd
       -0.081779845 -0.06666221 -0.05551525 -0.073377945
000020 06 a9 6b bd 3e 19 73 bd 68 60 1e be 94 bc b6 bc
       -0.05753424 -0.059350245 -0.15466464 -0.022306718
000030 81 a8 48 bd df 72 df bd a4 97 27 bd df 30 a5 bd
       -0.048988823 -0.10910582 -0.0409161 -0.08065962
000040 02 7b 87 bd 58 0f ce bd 48 08 c8 bd ac f1 b0 bd
       -0.06615259 -0.1006152 -0.097672045 -0.08639845
000050 9a 45 6e bd 7b 65 2b bd 72 73 95 bd fd cf 7f bd
       -0.058171846 -0.041844826 -0.0729741 -0.062454212
000060 f5 4a b8 bd 33 82 96 bd 01 2c ef bd 65 28 c1 bd
       -0.08998672 -0.07349052 -0.11678315 -0.09431533
000070 6d 77 2b bd f9 3a 11 bd 51 12 99 bd 71 1a 03 bd
       -0.04186194 -0.03545663 -0.07474197 -0.03200764
000080 ae 13 ed bc 6c 05 7b bd 37 69 04 bd e3 da fc bc
       -0.028940048 -0.061284468 -0.032326903 -0.030866092
000090 e1 03 c9 bc ef f2 b0 bd 70 29 a4 bd 73 a4 5b bd
       -0.024537982 -0.08640086 -0.08015716 -0.053623628
0000a0 1f 6d 95 bd 09 ec ad bd c7 5f 89 bc 6e 2c 88 bc
       -0.07296204 -0.08492286 -0.016769303 -0.016622748
0000b0 f0 29 37 bd 0e 86 be bd ac ac 94 bd 9a 44 45 bd
       -0.04471773 -0.09302913 -0.07259497 -0.048161127
0000c0 b3 46 ae bd b6 23 8f bd 17 c6 41 bd 5c e2 1d bc
       -0.085095786 -0.06989233 -0.047308054 -0.009636488
0000d0 43 2c 8b bd a6 39 47 bd ae fd b6 bd a7 37 8b bd
       -0.06795552 -0.048638962 -0.08935104 -0.06797724
0000e0 d8 30 a1 bd ff 3b a4 bd 78 45 b6 bd a0 a5 49 bd
       -0.07870644 -0.08019256 -0.08899969 -0.049230218
0000f0 e0 18 32 be 88 71 86 bd 1e 73 4d bd cd a1 7e bd
       -0.17392302 -0.06564623 -0.050158612 -0.062166024

enemy_embedder.3.weight f4 [64, 64]
000000 7f 27 83 bd 9d 24 f5 bb aa e2 0b 3d 9b 13 b5 bd
       -0.06404018 -0.0074811713 0.03415171 -0.0884163
000010 60 8f d0 3d db 2e 8e bc 8e 92 c0 3d 28 3a 10 be
       0.101835966 -0.017356327 0.09402953 -0.14084685
000020 9f ad 05 3d 8e f1 b5 bc 0b 35 35 be c7 d6 e3 3d
       0.03263628 -0.022209909 -0.17696016 0.1112495
000030 5e 71 f3 3d 0c 63 ce bc 4b 61 15 3e 25 a1 5f be
       0.118868575 -0.025193714 0.14587896 -0.21838816
000040 b2 3c c6 3d de cc 5e bd 75 b5 d1 3d b4 cc e7 bc
       0.096795455 -0.054394595 0.10239688 -0.028295852
000050 08 25 10 3d cb 2b 3a bc 4a 79 01 be 64 d4 bb bc
       0.035191566 -0.01136298 -0.12643924 -0.022928424
000060 50 52 8a 3d b7 3d 49 be 00 b8 a8 bd 7b 08 1c 3e
       0.06753981 -0.19652449 -0.0823822 0.1523761
000070 5f 55 f6 bc 81 f2 0f bc 58 cb ca 3d e6 44 0f 3e
       -0.030070005 -0.008785845 0.09902066 0.13991126
000080 90 90 e7 bc f8 14 9d bd c5 e0 b0 3c a7 47 cd bd
       -0.028267175 -0.07670015 0.021591553 -0.10023432
000090 eb ca c1 3d 94 65 58 bc fe 90 b0 bd 77 11 f2 3c
       0.09462532 -0.013207812 -0.08621405 0.029549344
0000a0 54 6a a3 bc 6a 85 10 be 15 11 ab 3d 6a 1b 06 be
       -0.019948162 -0.14113393 0.083528675 -0.13096395
0000b0 01 db 0b be 46 dd da 3c 59 4b 1d bd 8b 5e 88 3d
       -0.13657762 0.02671684 -0.038401935 0.06658658
0000c0 b4 32 87 3d 2a 1d 05 be 14 a2 5a bd 50 04 bf 3d
       0.06601468 -0.12999406 -0.053377226 0.093269944
0000d0 4b 25 4b 3c 0d 20 38 3d 5c f6 4e be be 8b 8c bd
       0.012399028 0.04495244 -0.20211166 -0.06862591
0000e0 22 7c af bd 12 7c 22 3e 3a ea 39 be 7a 81 a2 3b
       -0.08568598 0.15867642 -0.18155757 0.0049592825
0000f0 7d 90 b1 bd 96 d2 6f bc f4 3c 07 3e 1d 14 1e 3d
       -0.08670137 -0.01463761 0.13206846 0.0385934
000100 36 7e 33 3e 91 11 f1 3b b7 d7 87 bd 50 82 05 3e
       0.17528614 0.0073568304 -0.06632941 0.13037992
000110 a2 36 9e bd a7 1e 32 3e 19 45 1b 3e 1d 0a 52 3d
       -0.07725264 0.17394505 0.15163077 0.051279176
000120 6c 94 b6 3c 79 d1 5a bd 06 e5 1f 3c 23 47 e6 3d
       0.02228757 -0.053422425 0.009759193 0.11244037
000130 ba 62 d1 3c 4c 1c c8 bd 14 3e 14 be 4b 54 4b 3d
       0.025559772 -0.09771022 -0.14476806 0.049640935
000140 6b e3 c4 bc d8 ea 56 bd 54 b8 0a 3e 16 e5 57 be
       -0.024034223 -0.05247006 0.13546878 -0.21083483
000150 c1 6c 11 3e 17 f9 98 3d 1c f7 0b be 7b f8 cc bd
       0.14201643 0.07469385 -0.13668483 -0.100083314
000160 76 41 8f bd ef 64 c0 3c 70 88 cf bd 66 e8 62 bd
       -0.069949076 0.023485629 -0.10133445 -0.055397414
000170 1c 4d e1 bc 09 5f 91 bd 53 33 9b bd ac 66 e5 bd
       -0.027502589 -0.07098205 -0.07578149 -0.11201224
000180 db 24 46 3a 7b 4b 0d bd 71 6f a6 bd 7e 1b 8b bd
       0.00075585925 -0.034495812 -0.081267245 -0.06792353
000190 c4 31 43 3d d7 72 d9 3d 74 36 0e be e1 84 84 bd
       0.047654882 0.10617607 -0.1388796 -0.06470657
0001a0 9b cc 6a bd 45 cb 46 bd 2f d1 36 3b 4a e3 af 3c
       -0.057324033 -0.048533697 0.002789568 0.021470685
0001b0 6a 00 77 3d 34 1f c2 3c c4 87 b4 bd 3d 3a a0 bc
       0.06030313 0.02369652 -0.08814958 -0.01955902
0001c0 b5 ae c7 3d 40 dd 04 3e 32 fc 04 3e 49 62 2b 3e
       0.097501196 0.12975025 0.1298683 0.16736712
0001d0 c3 09 94 3d f0 06 b5 bd 95 ca 01 3e af ea 34 bd
       0.072284244 -0.08839214 0.12674935 -0.044169124
0001e0 a4 5d c1 3d bc 06 3f bc 83 e6 d6 3c ef b7 0b 3d
       0.09441689 -0.01165932 0.026232963 0.03411096
0001f0 37 5c 37 3e c0 11 d9 bc b7 17 1d bd 48 e9 c2 3d
       0.17906271 -0.026497722 -0.038352694 0.09517151
000200 32 23 c9 3c 9e 55 71 3d c6 ef ee 3c 1a 69 04 be
       0.024552915 0.05891954 0.029167067 -0.12930718
000210 1e 37 1c bd 2f 8b db ba fa 68 ef bd 90 b5 3b bd
       -0.0381385 -0.0016749854 -0.116899446 -0.04582745
000220 8e c5 ac bd 94 a8 8b bd 93 24 60 3c d6 60 d8 bb
       -0.08436118 -0.06819263 0.013680595 -0.0066033406
000230 6d 33 11 3e fe f1 e4 bc a2 6f d8 3c c9 5a d4 bd
       0.14179774 -0.027947422 0.026420418 -0.103688784
000240 84 91 c3 bb 33 d7 42 3d e4 ff 91 bd 48 34 cb bc
       -0.0059682745 0.04756851 -0.071288854 -0.024805203
000250 e4 c8 a0 3d a9 da f0 3a 1e b5 6b 3d 34 c3 2c 3c
       0.07850817 0.0018375713 0.057545774 0.010544587
000260 7b 29 24 bc 22 21 48 bc 77 09 a9 3d 29 7f 5a 3c
       -0.010019655 -0.012214931 0.082537584 0.013335981
000270 f4 d8 bf bb 26 36 a5 3d df 21 53 3d 9a 69 1d 3d
       -0.0058547202 0.080669686 0.051545974 0.038430788
000280 a2 f6 53 bd ba fc a7 3c 6b 4b cd bb b1 69 16 be
       -0.05174888 0.020506252 -0.006265094 -0.14688756
000290 3d 5f f4 bd 57 f1 d2 3c 6c e8 be 3c e3 88 c8 bd
       -0.11932228 0.025749845 0.023304187 -0.09791734
0002a0 a5 e1 06 3c 28 4e 8d 3d d6 85 d0 3d 64 8f 49 bc
       0.008232509 0.06899673 0.10181777 -0.012302253
0002b0 cf ef 20 be 03 f7 67 bb 8f 59 27 bb 37 67 ea 3d
       -0.1571648 -0.0035395033 -0.0025535559 0.11445468
0002c0 47 9c 3a 3c 9d 05 d7 bd 68 28 1d bd e8 2a 6f 3e
       0.0113897985 -0.104991175 -0.038368613 0.23356211
0002d0 67 50 29 3d 4d 97 36 bc 6f 10 0a 3c e7 39 0c bd
       0.041336443 -0.011144471 0.00842677 -0.034234907
0002e0 d4 50 53 3d c1 db 62 bd 66 ff 66 be 30 83 12 3e
       0.051590756 -0.055385355 -0.22558364 0.14307857
0002f0 a8 2b 80 be 95 60 0b bc f2 09 3e bc 72 25 d5 bc
       -0.25033307 -0.008506914 -0.011599051 -0.026018832
000300 d6 43 fe bc 55 f0 8f bd ae 07 e3 bd 11 eb bb 3d
       -0.031038206 -0.070282616 -0.11085449 0.09175695
000310 e8 28 21 bc 08 0d 89 3d 26 3e 15 3e 1e 9e 8a bd
       -0.009836413 0.06691939 0.14574489 -0.0676844
000320 1b 10 c4 bd 1c d0 17 3d c5 c4 7d 3e df f1 8e bd
       -0.095733844 0.037063703 0.24782093 -0.06979727
000330 d3 10 3a bd cd db 8f bd 33 c2 bb bd 93 83 f4 3d
       -0.0454262 -0.070243455 -0.091679 0.11939158
000340 04 25 5d bd b1 33 b6 3d 05 31 bd 3c 1c 2b 21 bd
       -0.05399038 0.08896578 0.023094663 -0.039347753
000350 c8 ce 92 bd 14 98 aa bd 73 38 62 3e 06 2f 8d 3c
       -0.07168347 -0.08329788 0.22091846 0.017234337
000360 d9 ce a5 3d 86 ea 55 3e b4 cb 57 bd c2 0c 94 3d
       0.08096094 0.20890245 -0.0526845 0.07228996
000370 da 8a 13 bd 8d 7b 60 3c d5 fb d4 3d c0 8d a8 3b
       -0.03602109 0.013701332 0.10399596 0.005143851
000380 06 cd 9b 3d b7 26 76 3d ac 8d 02 be 21 bc a7 bb
       0.076074645 0.060095515 -0.12749356 -0.0051188623
000390 83 f6 36 be d4 9d 19 bd 34 bc 0f bd 87 e4 a1 3b
       -0.17867474 -0.037504032 -0.035091594 0.0049405727
0003a0 cb 4c 00 3e 2a 4b fc 3d 54 23 89 bd 6d 46 38 bc
       0.12529294 0.12319024 -0.066961914 -0.01124726
0003b0 83 8b bb bd 02 41 2f be 7a a2 38 be bf db 50 bd
       -0.09157469 -0.17114642 -0.1803073 -0.050990816
0003c0 da e5 7c 3c 8f 65 76 bd 4a 88 bd bd 7e f0 ee 3d
       0.01543566 -0.060155448 -0.09254511 0.11666964
0003d0 e0 54 8d 3d 7e bb b8 3d 80 a5 0d be 7d 3d 14 be
       0.06900954 0.09020136 -0.13832664 -0.14476581
0003e0 c4 d3 5b bd ca 91 bc 3d ce 61 9d 3d 0f 3c 53 bc
       -0.053668752 0.092074946 0.076846704 -0.012892737
0003f0 4f 24 e4 3e 9e 09 48 3a 10 d7 a5 3c ec 5b 98 bd
       0.4455895 0.00076308276 0.020244151 -0.07439408

enemy_embedder.3.bias f4 [64]
000000 b7 7d 95 3c fa fe 57 3c da f6 d1 bb 81 bd 02 bc
       0.018248422 0.01318335 -0.006407601 -0.007979752
000010 1e ad 0c 3c 82 5d 00 3b 45 15 f5 3b 61 23 2e 3b
       0.008586196 0.0019586985 0.007479342 0.002657138
000020 f5 10 3f 3c 52 f6 d8 3c ea 04 83 bc d5 ed 68 bc
       0.011661758 0.026484642 -0.015993554 -0.01421686
000030 36 a6 68 ba ec 66 e4 ba 8b 1c 42 3c 86 5d 21 3c
       -0.0008874865 -0.0017425693 0.0118476255 0.009848958
000040 40 3c 32 bd 31 3f 29 ba 49 66 84 3b ce 54 9b bc
       -0.04351449 -0.00064562546 0.0040405137 -0.018961336
000050 48 28 59 bc be b1 06 3c 6c f4 d6 3b 43 61 e2 3b
       -0.013254233 0.008221088 0.006559899 0.006908567
000060 e9 b5 3a bc 99 5f 3c 3c a8 71 8a bb 50 e2 aa 3b
       -0.01139591 0.011497402 -0.0042249747 0.005214967
000070 f0 f2 51 3c b3 78 ba bc 84 6c 63 3c 63 82 93 3a
       0.0128142685 -0.022762632 0.013880853 0.0011254068
000080 db 3e 6f bc 29 fd 19 bc 80 12 59 3a 29 93 a7 3b
       -0.014602388 -0.009398737 0.000828065 0.0051139784
000090 8e c1 d3 bc 88 ba 2c 3c 5e ee 04 3b 8b 36 1d bb
       -0.02584913 0.010542519 0.002028368 -0.002398881
0000a0 2c ad a9 bb ec 21 31 bc e6 d4 3d 3c 3d 51 a8 3b
       -0.0051781144 -0.01081131 0.0115864035 0.0051366375
0000b0 c7 8a 0a 3c b2 18 54 3b c7 da 97 3a a0 f2 62 bc
       0.008455939 0.0032363352 0.0011585586 -0.013851792
0000c0 fa e9 4a 3c b3 c2 29 bc c9 8b f6 bb 8f 9a 13 bc
       0.012384886 -0.010361361 -0.007523988 -0.009009018
0000d0 40 79 20 3b 95 05 74 3b 36 a3 84 3b 2f e9 45 bc
       0.0024486333 0.0037234772 0.0040477766 -0.012079521
0000e0 91 fe 84 3c 8c d1 7b 3c f2 69 f9 3b 88 cf 94 bb
       0.016234668 0.015369784 0.0076115066 -0.004541341
0000f0 c1 1b ac 3c 7e 42 af bc 13 3d 9b bc b2 54 c0 bc
       0.021009328 -0.02139401 -0.01895002 -0.023477886

enemy_embedder.4.weight f4 [64]
000000 6b 67 89 3f c3 c3 89 3f 35 dd 7f 3f 27 ce 8a 3f
       1.0734686 1.0762867 0.9994691 1.0844163
000010 bb 61 70 3f 6b 94 88 3f 48 11 8d 3f 86 ae 90 3f
       0.93899125 1.0670294 1.1020899 1.130326
000020 56 a4 9b 3f 8a 45 8c 3f f5 b4 6e 3f 60 26 86 3f
       1.2159526 1.0958722 0.9324487 1.0480461
000030 b4 07 95 3f 43 7e 80 3f e6 ec 86 3f 1f 5c 71 3f
       1.1642976 1.0038532 1.0541046 0.9428119
000040 5d 6d 85 3f 43 56 91 3f e1 a7 7d 3f 81 8f 8d 3f
       1.0424 1.135445 0.9908429 1.1059419
000050 97 c8 8d 3f 64 3e 93 3f 8e 52 6f 3f 20 86 82 3f
       1.107684 1.1503415 0.93485343 1.0197182
000060 07 d2 90 3f 58 1b 7a 3f 3b 5c 80 3f 01 fd 82 3f
       1.1314095 0.97697973 1.0028147 1.0233461
000070 63 24 8b 3f 35 27 64 3f 18 4b 89 3f 63 92 93 3f
       1.0870479 0.89122325 1.0726042 1.1529049
000080 63 2b 90 3f 31 76 72 3f cd 7a 87 3f c4 07 7a 3f
       1.126324 0.94711596 1.0584351 0.976681
000090 51 8b 8d 3f 2c f2 6d 3f 97 fc 80 3f f1 b8 85 3f
       1.1058141 0.9294765 1.0077084 1.0447065
0000a0 c6 09 8e 3f f3 87 94 3f 83 7c 83 3f 2a 74 8c 3f
       1.1096733 1.1603988 1.0272373 1.097295
0000b0 43 95 65 3f c8 69 84 3f f5 da 9c 3f 5a fb 8a 3f
       0.8968088 1.0344782 1.225432 1.0857956
0000c0 d3 ca 87 3f 4a c9 85 3f 79 d5 8a 3f fa 20 6c 3f
       1.0608772 1.0452054 1.0846397 0.9223782
0000d0 e7 55 95 3f d2 09 8f 3f fd 47 94 3f 97 10 8f 3f
       1.166684 1.1174872 1.1584469 1.1176938
0000e0 e5 46 87 3f 17 c4 8d 3f a5 76 88 3f 40 54 85 3f
       1.056851 1.1075467 1.0661207 1.0416336
0000f0 bb 0c 6b 3f a6 29 84 3f de ff 89 3f 63 24 7c 3f
       0.918163 1.032521 1.078121 0.9849302

enemy_embedder.4.bias f4 [64]
000000 4c d7 e4 3b 80 4a eb 3d 23 a2 82 bd 31 b6 f8 bc
       0.006983673 0.11488819 -0.063785814 -0.030360313
000010 f9 d1 34 3d 33 a0 ed bc d9 fc 9e bd a4 9a 01 3d
       0.044145558 -0.029007053 -0.077630706 0.031641617
000020 83 fd 39 3d 61 cc 09 3e 33 52 c7 3c f5 a0 88 3d
       0.045407783 0.1345687 0.024331188 0.06671325
000030 d5 29 40 bd 87 35 d0 bc cc 81 72 3d 81 e8 10 be
       -0.046914894 -0.025416149 0.059205815 -0.14151193
000040 33 2a 7b bd f0 e0 d4 3d a2 10 90 bd 33 1d 07 be
       -0.06131954 0.10394466 -0.070344225 -0.13194732
000050 85 7c 8f 3b 56 69 8b bd c1 8d 16 3e 12 a3 18 3e
       0.0043788576 -0.068072006 0.14702512 0.14905956
000060 bb 23 83 bd af fc cc bd e2 77 d3 3d f3 5c 39 bd
       -0.064032994 -0.10009133 0.103256 -0.04525466
000070 fa 6a 73 3d 43 45 c8 bd 48 79 f0 3d 01 e9 90 3d
       0.059428193 -0.097788356 0.117418826 0.07075692
000080 76 a5 d2 bd 33 d5 af bd 03 61 31 3d 01 aa 8e 3d
       -0.102854654 -0.085855864 0.04330541 0.069660194
000090 02 39 8d 3c 1a 85 29 3e af 1f 0c 3e e4 4c c2 3d
       0.017239098 0.1655468 0.13683961 0.09487322
0000a0 e6 7c aa 3d c8 a3 ce bd 7b 58 0d bd 90 67 e9 bd
       0.08324604 -0.100898325 -0.03450821 -0.11396706
0000b0 d8 f7 0c be 5e ba e8 3d e6 47 a1 3d 8c 51 f0 3d
       -0.1376642 0.11363672 0.07875042 0.11734304
0000c0 b7 49 8c 3d 17 16 28 be e7 aa ec 3d 5d 8e e2 bd
       0.068499975 -0.16414677 0.115560345 -0.1106231
0000d0 40 7d ce bd f0 b9 81 bd a6 d3 23 bd d7 8f b7 3d
       -0.10082483 -0.06334293 -0.039996766 0.08962982
0000e0 44 03 cf 3d 87 2a 81 bd 43 00 78 bd 99 8c c5 bd
       0.10108045 -0.063069396 -0.060547125 -0.096459575
0000f0 47 71 0a 3e 4e 9c cd bd b9 af b1 bd f5 0c 97 bc
       0.13519774 -0.100395784 -0.086760946 -0.018438796
