models/ml_agent_20250412_112317_advanced_final.pt (torch, 107592 bytes, 6 tensors)

fc1.weight f4 [128, 56]
0	0x3d5f8c0c	0.05457692
1	0x3e068b97	0.13139187
2	0xbcef1a4e	-0.029187348
3	0xbe029189	-0.1275083
4	0x3cca4881	0.024692776
5	0x3cf9060f	0.030398397
6	0xbbe49293	-0.006975481
7	0xbdbe70a4	-0.09298828
8	0xbd9a1375	-0.075232424
9	0xbd4cf98e	-0.05004268
10	0xbdd7f04c	-0.1054388
11	0xbdf5340e	-0.11972819
12	0xbdf30f18	-0.11868113
13	0xbd281c53	-0.041042637
14	0xbdbf9142	-0.093538776
15	0xbd231b24	-0.039820805
16	0xbdc299e5	-0.09502009
17	0x3cfa91f9	0.030587183
18	0xbd7d62b5	-0.061861712
19	0x3d91f658	0.071270645
20	0xbd423125	-0.04741015
21	0xbc9dfb8a	-0.019284982
22	0xbe01b40e	-0.12666342
23	0x3d8cab0a	0.068685606
24	0x3d8e8601	0.06959153
25	0xbd0f79a5	-0.03502812
26	0xbd251287	-0.040300872
27	0x3d950eb5	0.07278196
28	0xbd764686	-0.06012585
29	0x3e085701	0.1331444
30	0x3d544f62	0.051833518
31	0xbca207e1	-0.019779148
32	0x3dd70120	0.104982615
33	0xbddb2806	-0.10700993
34	0x3e06377d	0.13107105
35	0xbd7ea397	-0.06216773
36	0x3cc58f73	0.024116253
37	0xbd6032bc	-0.054735884
38	0xbdfd3dde	-0.12365316
39	0xbd41416a	-0.047181524
40	0x3dc1c367	0.09461098
41	0xbda075ba	-0.078349546
42	0x3ca6fe12	0.020384822
43	0xbd9a1e9b	-0.07525369
44	0xbdecf091	-0.11569322
45	0x3d794f9f	0.06086695
46	0xbdf54543	-0.11976101
47	0xbde8f5d7	-0.11375015
48	0xbd91193a	-0.0708489
49	0xbdbafbd7	-0.09130066
50	0x3cd9ddea	0.026595075
51	0x3df31b74	0.11870471
52	0xbc90641a	-0.017625857
53	0x3da1f371	0.07907761
54	0x3da8b410	0.08237469
55	0x3dc84c02	0.09780122
56	0xbb8855ea	-0.0041606324
57	0xbdeb872c	-0.11500391
58	0x3db3137f	0.08743953
59	0x3e0677f5	0.13131697
60	0xbdac758d	-0.084208585
61	0x3df4276d	0.11921582
62	0xbda96c48	-0.08272606
63	0x3d937260	0.0719955
64	0xbd96e6c6	-0.07368235
65	0x3cbf1305	0.023324499
66	0x3d35118a	0.04420618
67	0x3d2a05dd	0.041509498
68	0xbdb38a9c	-0.08766672
69	0x3e067191	0.1312926
70	0xbd71a58a	-0.05899576
71	0xbd958b74	-0.07301989
72	0x3dacf0d1	0.084443696
73	0x3e088eca	0.1333572
74	0xbcc3c29f	-0.023896514
75	0xbcf935d4	-0.030421175
76	0xbda799ad	-0.08183608
77	0x3d6a724e	0.057237916
78	0xbb94d2a0	-0.00454171
79	0x3bfc0e37	0.007692124
80	0x3dd686e5	0.10474948
81	0xbe00bb35	-0.12571414
82	0x3e025a8f	0.12729858
83	0x3dbed3f0	0.093177676
84	0x3d691fd6	0.056915127
85	0xbcb2200c	-0.021743797
86	0xbd0d9d85	-0.03457405
87	0x3df81937	0.12114184
88	0xbc3c7b47	-0.011504001
89	0xbd921ee3	-0.071347974
90	0x3de7d88f	0.11320602
91	0x3da072ba	0.07834382
92	0xbd3a0062	-0.04541052
93	0xbdd1b8ca	-0.10240324
94	0x3df4eb58	0.11958951
95	0x3b0a98cd	0.0021148205
96	0x3ddfefad	0.109343864
97	0x3d41ba59	0.047296856
98	0x3cc6e815	0.024280587
99	0xbce95efa	-0.028487671
100	0x3d317aa1	0.04332984
101	0x3c3f514b	0.011677097
102	0x3d6babc9	0.057536874
103	0xbcb1e41d	-0.021715218
104	0x3ccea4ec	0.025225125
105	0x3ddd3b47	0.10802322
106	0xbd45cf82	-0.048293598
107	0x3b4d262b	0.0031303267
108	0x3d85b55c	0.06528732
109	0xbcdcf309	-0.026971357
110	0xbd2ef20d	-0.042711306
111	0x3df64593	0.12024989
112	0x39493296	0.00019187698
113	0xbd86f040	-0.06588793
114	0xbc8ec3a4	-0.017427273
115	0xbd126b1f	-0.03574669
116	0x3d97fd94	0.07421413
117	0x3b032b81	0.0020014944
118	0xbd0009ec	-0.031259462
119	0x3e08b849	0.13351549
120	0xbcdc1bb9	-0.026868688
121	0xbcf3269d	-0.029681498
122	0x3ca17db5	0.019713262
123	0xbdd43de0	-0.10363364
124	0xbd17b591	-0.03703839
125	0x3dd450d8	0.10366982
126	0x3d8a8244	0.067631274
127	0x3daa1904	0.083055526
128	0x3c3592be	0.011082349
129	0xbd188c14	-0.037242964
130	0xbe02529b	-0.12726824
131	0x3d029e82	0.031889446
132	0x3d72671f	0.059180375
133	0x3da2b705	0.079450645
134	0xbdd50e08	-0.10403067
135	0xbdb685d3	-0.08912244
136	0x3d929c10	0.07158673
137	0xbdc914fd	-0.09818456
138	0xbda3f469	-0.08005602
139	0xbd785213	-0.060625147
140	0x3d93ab69	0.07210428
141	0x3d400f95	0.04688986
142	0x3ceccb8f	0.028905658
143	0x3da5fd31	0.08104933
144	0xbdba91f2	-0.09109868
145	0x3d306ca5	0.04307236
146	0x3dbd62d1	0.09247363
147	0xbdf6c741	-0.120497234
148	0xbd274e84	-0.040846363
149	0x3dde9b3a	0.10869451
150	0x3dd30756	0.103041336
151	0x3cebddaa	0.028792221
152	0xbdc59db6	-0.096492216
153	0x3de8e52e	0.113718376
154	0x3de1abb3	0.11019077
155	0x3d9568e8	0.072954
156	0xbcf08134	-0.029358484
157	0xbdac468c	-0.08411893
158	0xbdc150c3	-0.09439232
159	0xbdf24d9f	-0.11831211
160	0x3cf59971	0.029980393
161	0xbc83e562	-0.01610059
162	0x3c7214f0	0.0147755
163	0x3d17420b	0.036928218
164	0x3d0ff13a	0.03514216
165	0x3e07a4e7	0.13246499
166	0x3de050b1	0.10952891
167	0x3e0134d5	0.1261781
168	0xbde1958f	-0.11014854
169	0x3dc71790	0.09721291
170	0x3d96b1bd	0.0735812
171	0x3e01fba7	0.12693654
172	0xbd1d74e8	-0.03844157
173	0xbdea4fd0	-0.11441004
174	0xbd6f34e6	-0.058400057
175	0xbc23ee4b	-0.010005544
176	0xbd87fe9c	-0.0664036
177	0xbd9ebf40	-0.07751322
178	0xbda21375	-0.079138674
179	0x3c9b80ee	0.018982377
180	0xbd86c62e	-0.065807685
181	0xbd567a99	-0.052363012
182	0xbdfbcc99	-0.12294883
183	0x3dbb8a77	0.091572694
184	0x3db3d8e5	0.08781604
185	0xbb77ad0e	-0.0037792358
186	0x3de15305	0.11002163
187	0x3d61b99f	0.055108663
188	0xbd61991e	-0.055077665
189	0xbd023a40	-0.031793833
190	0x3ddc9381	0.10770322
191	0xbcea6c60	-0.02861613
192	0x3dfc7d0e	0.1232854
193	0x3c740aa7	0.014895118
194	0xbdae2076	-0.08502285
195	0xbd8ad58d	-0.06779013
196	0xbdfdcb28	-0.123922646
197	0x3c61da18	0.013784908
198	0x3dab9055	0.083771385
199	0x3de4b85e	0.11167978
200	0xbd853526	-0.06504278
201	0xbdeffdbb	-0.11718317
202	0xbc98885f	-0.018619714
203	0xbda8954e	-0.082316026
204	0xbd5db20f	-0.054124888
205	0xbcbee013	-0.023300206
206	0x3d581b7e	0.052760594
207	0xbc4186d1	-0.011811928
208	0x3ccddf37	0.025130851
209	0xbc9fcdf2	-0.019507382
210	0x3e050f37	0.12994085
211	0xbd3185c9	-0.043340478
212	0xbd7d24e3	-0.061802756
213	0xbd45b8c6	-0.048271917
214	0xbdbf37ad	-0.09336791
215	0x3d6aab04	0.057292
216	0xbd59ae8f	-0.053144988
217	0x3d8e8547	0.069590144
218	0xbdd9c443	-0.10633137
219	0x3dcb29f0	0.09920108
220	0x3e020737	0.12698065
221	0x3d20d1fd	0.03926276
222	0x3cf6cfd5	0.030128399
223	0xbb9cd8cb	-0.004786586
224	0x3dea7210	0.11447537
225	0x3e04b8b8	0.1296109
226	0xbdf4e35a	-0.11957426
227	0xbdf17e85	-0.1179171
228	0x3deaffbf	0.11474561
229	0xbb533b80	-0.003223151
230	0xbc1be943	-0.009516063
231	0xbbbc9522	-0.0057550827
232	0x3d1d36fd	0.03838252
233	0xbda1034d	-0.07861958
234	0x3dd43f21	0.103636034
235	0xbe021118	-0.12701833
236	0xbc6fe45b	-0.0146418465
237	0x3bd245c1	0.0064170067
238	0xbe005672	-0.12532976
239	0xbd935a76	-0.071949884
240	0x3bf72b09	0.007542972
241	0xbd86ed92	-0.06588282
242	0x3daf737d	0.085669495
243	0x3ddcfe22	0.107906595
244	0xbb7cf5ef	-0.0038598736
245	0x3d34e3ab	0.044162434
246	0xbb077a39	-0.0020672216
247	0xbdf04dbe	-0.11733578
248	0xbc879359	-0.016549753
249	0x3e06f7c3	0.13180451
250	0xbd5b51b9	-0.053544734
251	0x3df45402	0.11930086
252	0xbc802b5d	-0.015645677
253	0x3d4163df	0.047214385
254	0xbdfb419a	-0.12268372
255	0xbc3fb3d8	-0.011700593

fc1.bias f4 [128]
0	0x3d77c9c1	0.060495142
1	0x3d9aa3df	0.07550787
2	0x3db01d22	0.08599307
3	0x3b620698	0.0034488793
4	0x3df89485	0.12137703
5	0xbcb2bf22	-0.021819655
6	0xbd03709b	-0.03208981
7	0x3dedcd48	0.1161142
8	0x3dda429d	0.10657237
9	0x3d76cb45	0.060252447
10	0x3cd58221	0.026063027
11	0x3d37e3d0	0.044894993
12	0x3c3de66b	0.01159058
13	0x3b529588	0.0032132585
14	0xbdc20816	-0.094741985
15	0xbdc103b3	-0.09424534
16	0x3dd5a27a	0.104313806
17	0xbd88660a	-0.066600874
18	0x3d1d25c8	0.03836611
19	0xbdadb4ea	-0.08481772
20	0x3c5742a9	0.013138452
21	0xbd67a185	-0.05655052
22	0xbd82a955	-0.06379954
23	0x3d41e6d0	0.04733926
24	0x3c9fd7c4	0.019512065
25	0x3d1074c9	0.035267625
26	0xbc1e5fdd	-0.00966641
27	0xbd863641	-0.06553317
28	0x3cd66c2f	0.026174633
29	0xbd1e30cb	-0.03862075
30	0xbd95e7de	-0.07319616
31	0xbd093f33	-0.033507537
32	0xbdc9cb38	-0.09853214
33	0xbcb141e2	-0.02163786
34	0xbd8d08df	-0.06886458
35	0xbb69c098	-0.0035667773
36	0xbd6a08b4	-0.057137206
37	0xbdf7364f	-0.120709054
38	0xbd69ee14	-0.057111815
39	0x3a1e4a26	0.00060382707
40	0x3d87efa5	0.066375054
41	0xbd8c125d	-0.0683944
42	0x3dc1fac6	0.09471659
43	0x3dca967c	0.09891984
44	0x3e074e57	0.13213478
45	0xbc6b3a6f	-0.014357193
46	0x3d9a03bb	0.07520243
47	0xbb3effb6	-0.0029144115
48	0xbc970fd5	-0.018440166
49	0xbd86e2c1	-0.065862186
50	0x3ce574e1	0.028009834
51	0x3a132813	0.00056135765
52	0xbc3175bc	-0.010831293
53	0xbce60caf	-0.02808222
54	0x3d8651ce	0.06558572
55	0xbda5b5a0	-0.08091283
56	0x3c4c536f	0.012471064
57	0x3c592131	0.013252542
58	0xbd5faa95	-0.05460604
59	0xbc3856fc	-0.011251207
60	0xbc64b3b7	-0.013958863
61	0x3cbbd8fc	0.022930615
62	0xbd8ce3db	-0.068793975
63	0xbd57dde0	-0.05270183
64	0xbc648d5d	-0.013949719
65	0xbcc77c1c	-0.024351172
66	0xbce1cc88	-0.027563348
67	0x3da5e98c	0.08101186
68	0x3ded08e1	0.11573959
69	0x3d04a6cc	0.032385632
70	0xbdf2917b	-0.118441544
71	0xbd86e50b	-0.06586655
72	0xbdf108f3	-0.11769285
73	0x3dddc69d	0.10828898
74	0x3d0f6b90	0.03501469
75	0xbdd43b85	-0.10362915
76	0xbcac95ed	-0.021067584
77	0x3df15aff	0.11784934
78	0x3c671624	0.0141044
79	0xbd8439fb	-0.064563714
80	0xbda8be05	-0.08239368
81	0xbdf7fb8c	-0.12108526
82	0x3d41f1f0	0.04734987
83	0xbdbccf84	-0.09219268
84	0x3d702dc5	0.0586374
85	0x3d4e360a	0.050344504
86	0xbe028d86	-0.127493
87	0x3d9b40e3	0.075807355
88	0x3dd16d28	0.10225898
89	0x3dea1003	0.11428835
90	0xbd1e0302	-0.038577087
91	0x3d6cd550	0.05782062
92	0x3d1fa0ad	0.03897159
93	0xbe06fddc	-0.13182777
94	0xbd32bf9a	-0.043639757
95	0xbd4cc2a6	-0.04999032
96	0x3de16413	0.11005416
97	0x3d988f47	0.07449203
98	0xbdccee27	-0.100063615
99	0x3d75072e	0.0598213
100	0xbcbae155	-0.022812525
101	0xbda4470b	-0.08021363
102	0x3e058f3f	0.13042925
103	0xbd5a9463	-0.05336417
104	0xbdb7609a	-0.08953972
105	0x3caa8bff	0.020818708
106	0xbd67ffb6	-0.05664035
107	0xbd8c5244	-0.068516284
108	0xbd3227ae	-0.043494873
109	0xbe04b320	-0.12958956
110	0xbde2addf	-0.110683195
111	0xbdf3dacc	-0.119069666
112	0xbc04306b	-0.008068184
113	0xbdc3aa9a	-0.09554024
114	0xbd909e88	-0.070614874
115	0x3d211754	0.039328888
116	0xbd94f3c6	-0.072730586
117	0xbda798f5	-0.08183471
118	0x3d8366be	0.06416081
119	0x3d5ae1be	0.05343794
120	0x3de402d3	0.11133351
121	0x3d9cee98	0.07662696
122	0x3dba859c	0.09107515
123	0xbb6d5eec	-0.0036219908
124	0xbd999379	-0.07498831
125	0xbdfe7567	-0.124247365
126	0x3d3e181d	0.046409715
127	0x3d717eb8	0.05895874

fc2.weight f4 [128, 128]
0	0x3d93176a	0.071822
1	0xbd9dd2ac	-0.07706198
2	0xbd1e253b	-0.038609724
3	0x3d5e9b29	0.05434719
4	0xbb2aaae4	-0.00260418
5	0xbd743cec	-0.059628412
6	0x3aefd3f6	0.0018297422
7	0x3d58438b	0.05279879
8	0xbd8b4bf0	-0.06801593
9	0x3d8d7d39	0.0690865
10	0x3c690863	0.014223191
11	0x3d46d1ae	0.04853981
12	0x3da14227	0.07873946
13	0xbda6d5db	-0.081462584
14	0x3d702256	0.058626495
15	0xbba81e68	-0.005130578
16	0x3c2a6549	0.010400125
17	0xbc8b760b	-0.01702406
18	0x3d9a049b	0.0752041
19	0x3c85b173	0.016319966
20	0x3c3aa3bc	0.011391576
21	0x3db12104	0.08648875
22	0x3d2e9c0b	0.042629283
23	0xbb7d8a0a	-0.0038687014
24	0x3daf5aa1	0.08562208
25	0xbd3c8dfb	-0.04603384
26	0xbcec81b0	-0.028870434
27	0xbd6e34ec	-0.05815594
28	0x3c8bec92	0.017080579
29	0x3c1ad44c	0.00945003
30	0xbb624d9c	-0.0034531122
31	0x3da4bda5	0.08043984
32	0x3cbc7cd5	0.023008743
33	0xbbfbfcd2	-0.0076900506
34	0xbccddcb1	-0.025129648
35	0xbc918fd7	-0.017768783
36	0xbd60a8c6	-0.054848455
37	0xbc985fd5	-0.018600384
38	0x3c808b01	0.015691282
39	0x3d06f2f9	0.03294656
40	0x3cfa0e3e	0.03052437
41	0xbd1cd8b7	-0.038292613
42	0xbd848e63	-0.064724706
43	0xbb731d10	-0.003709618
44	0xbcb15890	-0.021648675
45	0xbd937700	-0.07200432
46	0x3d2d4455	0.042301495
47	0x3c1a9d5d	0.009436932
48	0x3d3f4c5c	0.04670368
49	0xbd20abc8	-0.039226323
50	0x3d9f2712	0.07771124
51	0x3d99382b	0.07481416
52	0x3d8a1729	0.06742699
53	0xbc987232	-0.01860914
54	0x3c4ebeda	0.012618745
55	0x3aa0a664	0.001225662
56	0xbd261665	-0.0405487
57	0x3db126f5	0.086500086
58	0x3cfe81db	0.03106778
59	0x3cbfa22f	0.023392765
60	0xbc8a7310	-0.01690057
61	0x3d95bdb6	0.07311575
62	0xbce44655	-0.027865568
63	0x3d9e3f78	0.077269495
64	0x3d3917f7	0.04518887
65	0xbd6e5da3	-0.058194768
66	0xbc4be73e	-0.012445269
67	0xbb456ec1	-0.003012583
68	0xbd940dae	-0.07229172
69	0xbd69126c	-0.056902334
70	0x3d0dbd7e	0.034604542
71	0x3d8bd444	0.06827596
72	0xbd5a6e20	-0.05332768
73	0xbc9ed78b	-0.019389888
74	0x3da1c9ab	0.07899793
75	0x3cf13003	0.02944184
76	0x3b94716c	0.0045301225
77	0xbd209df0	-0.03921312
78	0x3db2a7f0	0.08723438
79	0x3d6cb3b9	0.057788584
80	0x3cb544f7	0.022127612
81	0x3d170768	0.036872298
82	0xbd38acb7	-0.04508659
83	0xbcfbd944	-0.030743249
84	0xbbda6968	-0.0066653974
85	0xbd0f770c	-0.03502564
86	0x3da3eabe	0.08003758
87	0xbbe4367d	-0.0069645033
88	0xbd6597ff	-0.056053158
89	0x3c407eb6	0.01174896
90	0x3c5b1312	0.013371246
91	0x3d672c84	0.056438938
92	0xbd3c42c3	-0.045962106
93	0x3c7c8c24	0.0154142715
94	0xbcaff056	-0.021476906
95	0x3db45beb	0.088065945
96	0x3da1afc3	0.07894852
97	0x3d8d8827	0.069107346
98	0x3d9d7640	0.0768857
99	0x3d4e8504	0.050419822
100	0xbb6ba6d0	-0.0035957582
101	0xbd9dcec8	-0.07705456
102	0x3d691a8d	0.056910086
103	0xbd5f2457	-0.054478016
104	0x3d8cd90f	0.06877338
105	0xbd85883b	-0.065201245
106	0xbd1d2c08	-0.03837207
107	0x3cc56baf	0.0240992
108	0xbd0387a7	-0.03211179
109	0xbc4fae2a	-0.012675801
110	0xbd48dbc7	-0.04903772
111	0x3d9c4fb2	0.07632388
112	0x3d923f42	0.07140972
113	0x3cf4626c	0.029832087
114	0x3d287107	0.041123416
115	0x3bf8698f	0.007580943
116	0x3d685c43	0.056728613
117	0xbdb3d205	-0.087802924
118	0xbd640b41	-0.055674795
119	0x3d8b1399	0.06790847
120	0x3d61c0e0	0.05511558
121	0xbca7735a	-0.020440746
122	0xbbe28590	-0.0069128945
123	0xbd4e9d4f	-0.05044299
124	0x3d2b5a95	0.041834433
125	0x3ca7ed38	0.020498857
126	0x3cc00b9c	0.023443036
127	0xbd7591f5	-0.05995365
128	0x3a587b7e	0.0008258148
129	0x3c3e66fe	0.011621235
130	0xbd7a1aa4	-0.061060563
131	0x3b098b44	0.002098755
132	0xbdb13bfa	-0.08654018
133	0xbd86aa3d	-0.06575439
134	0x3d68668d	0.056738425
135	0xbd19cb68	-0.0375475
136	0xbce2d1f3	-0.027688002
137	0x3d24cf70	0.04023689
138	0xbd95af20	-0.07308793
139	0xbd85dcdd	-0.06536267
140	0x3d6a79b8	0.057244986
141	0x3d8f7b1d	0.07005904
142	0xbc922c33	-0.017843341
143	0x3d846d2f	0.064661376
144	0xbd5c8003	-0.05383302
145	0xbd692a1c	-0.056924924
146	0x3c9557c3	0.018230325
147	0xbda21319	-0.07913799
148	0xbc81401c	-0.01577764
149	0xbd817277	-0.063206606
150	0xbc233efb	-0.009963746
151	0xbcddd501	-0.027079107
152	0x3d2d9275	0.042376
153	0xbcedb4fd	-0.029016966
154	0x3d937f72	0.07202043
155	0xbd90cbe8	-0.07070142
156	0xbb785c64	-0.0037896866
157	0xbd959657	-0.07304066
158	0x3ccd3e08	0.025053993
159	0x3da1385d	0.078720786
160	0xbbbfa3c6	-0.0058483807
161	0xbcf82e1e	-0.030295428
162	0x3d98d2b6	0.07462065
163	0xbd326954	-0.04355748
164	0xbc03c2c3	-0.00804204
165	0x3da60ed0	0.08108294
166	0x3d66d741	0.056357626
167	0xbd762128	-0.060090214
168	0x3d83cb49	0.06435258
169	0xbd7bfaf1	-0.061518613
170	0x3d9f0ba9	0.07765896
171	0xbc5ebf63	-0.013595435
172	0x3dafe970	0.085894465
173	0x3d66b9f7	0.056329694
174	0xbda99fc3	-0.08282425
175	0xbd5a129f	-0.053240415
176	0x3d8ad3a2	0.06778647
177	0x3d707273	0.058702897
178	0x3d8e8b8e	0.06960212
179	0xbd958e0f	-0.07302486
180	0xbd9ac91f	-0.07557892
181	0x3d0a13a3	0.033710133
182	0xbc9ff14e	-0.019524243
183	0xbc830b44	-0.015996583
184	0x3da64cb2	0.08120097
185	0xba197dec	-0.00058552506
186	0x3d73e8e0	0.05954826
187	0x3d1e54cf	0.0386551
188	0xbd0df8a6	-0.034660958
189	0x3d7db0bb	0.06193612
190	0x3d70ebb3	0.05881853
191	0xbd598c9d	-0.053112615
192	0xbd920fdb	-0.071319304
193	0xbd1b7b35	-0.037959296
194	0xbd2210ac	-0.03956668
195	0x3c3f4747	0.011674709
196	0xbc9904a2	-0.018678967
197	0xbc7f94db	-0.015599455
198	0xbd116b1e	-0.035502546
199	0x3cdfcafc	0.02731847
200	0xbbcc0bbf	-0.006226986
201	0x3a4d2094	0.0007824984
202	0x3d79d19c	0.060990915
203	0xbd5bd446	-0.053669237
204	0xbd466126	-0.04843249
205	0xbd4c8d3c	-0.04993938
206	0x3d397227	0.04527488
207	0xbd652b34	-0.055949405
208	0xbd13933c	-0.036029086
209	0xbccd5575	-0.025065163
210	0x3b03afab	0.002009372
211	0xbd375f21	-0.044768456
212	0xbd14cca0	-0.036327958
213	0x3bf8d948	0.0075942613
214	0x3c529796	0.012853524
215	0x3c811747	0.01575817
216	0xbcdb8193	-0.026795184
217	0xbd0b77a8	-0.03404966
218	0x3da7fad2	0.08202137
219	0xbd909141	-0.07058955
220	0xbd75273a	-0.059851862
221	0xbb97e1f2	-0.004635089
222	0xbbac8d94	-0.005265901
223	0xbd96e270	-0.07367408
224	0xbc1f269c	-0.009713795
225	0xbd89745b	-0.06711646
226	0x3942eb1c	0.00018588867
227	0xbd5541ae	-0.05206459
228	0x3d27a0ff	0.040925022
229	0x3d2cbf3b	0.04217456
230	0x3d159405	0.036518116
231	0xbd876e53	-0.066128395
232	0x3c490c18	0.01227095
233	0x3cd573e3	0.026056236
234	0xbd67893c	-0.05652736
235	0xbd46af10	-0.048506796
236	0xbd90bd5e	-0.07067369
237	0xbc1ec7fd	-0.009691236
238	0xbd11302f	-0.035446342
239	0xbc92ed4f	-0.017935423
240	0x3d9e59a0	0.07731938
241	0x3ca9c816	0.020725291
242	0xbd6bfaea	-0.057612337
243	0xbb05fbfb	-0.0020444382
244	0x3d3627a6	0.044471405
245	0xbb91ec73	-0.004453236
246	0xbd4c9985	-0.049951095
247	0x3d9c42ad	0.07629905
248	0x3d8137cd	0.06309471
249	0x3beb30fe	0.007177471
250	0xbc61f522	-0.013791354
251	0xbc8bb806	-0.017055523
252	0x3d579adb	0.052637916
253	0x3d1ca119	0.038239572
254	0xbc58844a	-0.013215134
255	0xbd5bc8da	-0.053658344

fc2.bias f4 [128]
0	0x3d0a19b7	0.03371593
1	0xbd98813b	-0.07446524
2	0x3d1a78e7	0.037712958
3	0x3b989ed5	0.004657606
4	0xbce087ea	-0.027408559
5	0xbccab22b	-0.02474316
6	0xbd6105cd	-0.054937173
7	0xbcef3a2a	-0.02920254
8	0xbcf41531	-0.029795261
9	0xbc8fb850	-0.017543942
10	0xbd89bef6	-0.06725876
11	0x3d2ba0b3	0.0419013
12	0xbc96dcde	-0.018415865
13	0xbcd65a89	-0.026166217
14	0x3d7661bc	0.0601518
15	0xbc6a21c6	-0.014290279
16	0x3cb5674e	0.022143986
17	0xbdaf05e4	-0.085460454
18	0x3b9c45e4	0.004769074
19	0xbd58c6b6	-0.05292388
20	0x3c6ec5c2	0.014573516
21	0x3d7a39b0	0.06109017
22	0x3c1cc32f	0.00956802
23	0xbd7e0431	-0.062015716
24	0xbda13347	-0.078711085
25	0xbd085cbf	-0.033291575
26	0x3cee6811	0.029102357
27	0xbd9dd4ca	-0.07706602
28	0x3d433dd2	0.04766638
29	0xbd0c7878	-0.034294575
30	0x3d85ae6f	0.06527411
31	0xbb54da2e	-0.0032478678
32	0x3b660cfa	0.003510295
33	0x3db43797	0.087996654
34	0x3d78d715	0.060751993
35	0xbd0f03b6	-0.03491565
36	0x3ce36ce5	0.027761886
37	0xbd753397	-0.059863653
38	0x3ba589f8	0.0050518475
39	0x3da13a0a	0.07872398
40	0x3d7353d7	0.059406128
41	0x3ca235c0	0.01980102
42	0x3cb8cd9f	0.022558985
43	0x3d81f99c	0.06346437
44	0x3bca3968	0.006171394
45	0xbd45c6ec	-0.04828541
46	0xbc863947	-0.016384734
47	0x3ce4bf94	0.027923383
48	0x3d2c4769	0.04206029
49	0xbd31d35e	-0.043414466
50	0x3d1a7cde	0.03771674
51	0xbd53b989	-0.051690612
52	0xbd2ff051	-0.042953793
53	0xbc640d58	-0.013919197
54	0x3d87b943	0.06627133
55	0x3ce43b2c	0.027860247
56	0x3db0f1ca	0.086398676
57	0xbd268bda	-0.040660717
58	0x3c324e38	0.010882907
59	0x3db0402a	0.08605988
60	0x3bd8bdc9	0.006614421
61	0xbbedcc3c	-0.0072570127
62	0xbcf0aacf	-0.029378323
63	0xbd3f03b1	-0.04663438
64	0x3daee540	0.0853982
65	0xbc522427	-0.012826002
66	0x3d5594fa	0.05214403
67	0x3c80c5f5	0.015719393
68	0xbd6a2f38	-0.057173938
69	0x3d965237	0.073399
70	0xbd6432e0	-0.05571258
71	0xbcf22062	-0.029556457
72	0x3d32f482	0.043690212
73	0xbd0e6d90	-0.034772456
74	0xbcd22662	-0.025653068
75	0xbd7b9bbd	-0.06142782
76	0x3ce080ee	0.027405228
77	0xbd6654a1	-0.056233052
78	0xbc9cb2d4	-0.01912824
79	0x3b969c3c	0.0045962613
80	0xbd123d45	-0.035702962
81	0x3d1aad87	0.037763145
82	0xbd41143e	-0.047138445
83	0xbd37fac2	-0.044916876
84	0xbd9a83d6	-0.07544677
85	0x3adbdec2	0.0016774761
86	0x3c87869d	0.01654368
87	0xbdb03276	-0.08603375
88	0xbcfb4ad4	-0.03067533
89	0x3d2b262b	0.041784447
90	0x3d327809	0.043571506
91	0x3d830d8c	0.06399068
92	0x3db288ad	0.08717475
93	0xbd8a136c	-0.06741986
94	0x3d1dc1f0	0.03851503
95	0xbd60b6f8	-0.054861993
96	0xbce360da	-0.027756143
97	0xbc805f46	-0.01567043
98	0xbda2b864	-0.07945326
99	0xbd92803c	-0.07153365
100	0xbd79198d	-0.060815383
101	0x3d927a67	0.07152253
102	0x3d26b267	0.04069748
103	0x3db234e5	0.08701495
104	0xbd3c6870	-0.045998037
105	0x3d99f001	0.0751648
106	0x3d56b21e	0.05241596
107	0xbc7b4e1f	-0.01533845
108	0x3d950a92	0.07277407
109	0x3d0325ce	0.032018475
110	0x3da85a8d	0.08220396
111	0xbd248c98	-0.040173143
112	0x3ce940ef	0.028473346
113	0xbd1c72c5	-0.03819539
114	0x3c186c51	0.009303168
115	0xbcaa57a6	-0.020793747
116	0xbcdbf12b	-0.026848396
117	0xbd9c8371	-0.07642258
118	0x3cca406a	0.024688918
119	0x3d72c803	0.059272777
120	0x3db2f503	0.087381385
121	0x3cea42cf	0.02859631
122	0xbd986a87	-0.074421935
123	0x3c1ce087	0.009575016
124	0xbd9d453c	-0.07679221
125	0x3d195abf	0.037440058
126	0x3d948435	0.07251779
127	0x3d9c1385	0.076209106

fc3.weight f4 [18, 128]
0	0xbd5b43f3	-0.0535316
1	0x3cdc771e	0.026912268
2	0x3d7e7c03	0.062129986
3	0x3be4a006	0.006977084
4	0xbc2ec87b	-0.010667915
5	0x3c024377	0.007950655
6	0x3d8a1f22	0.06744219
7	0xbd9b1ff3	-0.07574453
8	0xbd6dedbc	-0.05808805
9	0x3d6f5cb1	0.058438007
10	0xbdad0f02	-0.08450128
11	0x3da2d3eb	0.079505764
12	0x3d8ca080	0.068665504
13	0x3d951727	0.072798066
14	0xbd7dbd34	-0.061948016
15	0x3da4e100	0.08050728
16	0x3dad2f1c	0.08456251
17	0x3d9f8199	0.07788391
18	0xbd03a05e	-0.03213536
19	0xbcab8da6	-0.020941567
20	0x3dacd68b	0.08439358
21	0xbd6db804	-0.05803682
22	0x3d246c44	0.040142313
23	0x3daf00f1	0.085451014
24	0xbd7b7be2	-0.06139744
25	0xbbebbc4b	-0.007194077
26	0xbd9a8777	-0.07545369
27	0x3d19b8b4	0.037529662
28	0x3ba589f8	0.0050518475
29	0xbd9ed9ce	-0.07756387
30	0x3d72690f	0.059182223
31	0x397623b3	0.00023473687
32	0xbd739198	-0.05946502
33	0xbd0c77e7	-0.034294035
34	0xbcc0803d	-0.023498649
35	0xbd0a12e0	-0.033709407
36	0xbcb50ea6	-0.022101711
37	0x3d5aff31	0.053466026
38	0xbd5a7de4	-0.053342715
39	0xbcd728f7	-0.02626465
40	0x3d83dbab	0.06438383
41	0xbd5527af	-0.0520398
42	0xbcbd4c04	-0.023107536
43	0xbca141bc	-0.019684665
44	0x3d94417a	0.07239051
45	0x3d582148	0.052766114
46	0xbcb79048	-0.022407666
47	0xbbeb2718	-0.007176291
48	0x3cf20945	0.029545436
49	0xbcff386c	-0.031154834
50	0x3d9910b8	0.07473892
51	0x3cce3ac2	0.025174502
52	0xbce33af5	-0.027738074
53	0x3d1bb355	0.03801282
54	0xbce2919b	-0.02765732
55	0x3d849f7e	0.06475733
56	0x3d37dcc0	0.044888258
57	0xbd9ee180	-0.077578545
58	0xbb8d09d8	-0.004304152
59	0xbc7733b7	-0.015088013
60	0xbb09aa06	-0.0021005883
61	0x3d7314a8	0.05934587
62	0x3db3cdde	0.087795004
63	0x3cdc50de	0.02689403
64	0x3da4102b	0.08010896
65	0xbd5d53b4	-0.054034904
66	0x3d5032dc	0.050829753
67	0x3d33c9e9	0.04389373
68	0x3c7a711b	0.0152857555
69	0x3d921118	0.071321666
70	0xbb66b7bf	-0.0035204736
71	0xbcc227a4	-0.023700543
72	0xbd281290	-0.041033328
73	0xbd7e71ba	-0.062120177
74	0xbd06bfb5	-0.03289767
75	0xbda830d3	-0.082124375
76	0xbcd39149	-0.025826113
77	0xbd9c0fba	-0.07620187
78	0x3cc566f4	0.024096943
79	0x3be483d4	0.006973723
80	0x3c8bda90	0.017071992
81	0xbda9afb5	-0.082854666
82	0xbd8da8a4	-0.06916931
83	0xbd9e43ad	-0.07727752
84	0xbd896df1	-0.06710423
85	0xbdaf5366	-0.08560829
86	0x3d094034	0.033508494
87	0xbd50f391	-0.051013533
88	0xbd8d2116	-0.06891076
89	0xbcbe3119	-0.023216771
90	0x3d82d1f0	0.06387699
91	0x3d096c46	0.033550523
92	0xbdb1ef74	-0.0868825
93	0xbd692293	-0.05691774
94	0xbc82a747	-0.015948905
95	0x3d806ebf	0.06271123
96	0x3d0ba10b	0.03408913
97	0xbd8a9233	-0.067661665
98	0xbd0bb606	-0.034109138
99	0x3bdbb373	0.0067047416
100	0xbd321661	-0.043478373
101	0xbd1c4eb8	-0.03816101
102	0xbd051043	-0.03248621
103	0x3d5fcdca	0.054639615
104	0xbcb16391	-0.021653922
105	0xbb647afd	-0.0034863346
106	0xbc9e28f5	-0.01930664
107	0x3da2cf7c	0.07949731
108	0xbda7dc33	-0.081962965
109	0x3d4ea68f	0.05045181
110	0xbdadcd2b	-0.08486398
111	0x3d8abff5	0.06774894
112	0xbc3d5749	-0.011556455
113	0xbdaea1fe	-0.08526991
114	0x3d13b385	0.036059875
115	0x3c4d6043	0.012535158
116	0xbc3823d9	-0.0112390155
117	0xbda61d6b	-0.0811108
118	0x3d8fb4b6	0.0701689
119	0x3d32a1c4	0.043611303
120	0x3cce236c	0.025163375
121	0x3dad3910	0.084581494
122	0xbda61403	-0.08109286
123	0x3d136ada	0.035990573
124	0x3d9aea1f	0.07564186
125	0x3d3cdcab	0.046108883
126	0xbaf4915b	-0.0018659042
127	0xbc8dca9e	-0.01730853
128	0xbbc004bd	-0.00585994
129	0x3d2cec1c	0.04221736
130	0x3d00c8f4	0.031441644
131	0xbd300dfb	-0.042982083
132	0x3cee0b15	0.029058019
133	0xbda48a68	-0.080342114
134	0x3d33bf6d	0.04388373
135	0xbcc75e1b	-0.024336865
136	0x3d1ff46e	0.039051466
137	0x3d7e99b0	0.062158287
138	0x3dadefed	0.08493028
139	0x3ce702d5	0.028199593
140	0x3d9a765b	0.07542106
141	0x3d453580	0.048146725
142	0x3d6a221b	0.05716143
143	0x3d074fc2	0.033035047
144	0x3ca96895	0.020679751
145	0x3c1764a8	0.009240307
146	0xbcaa75db	-0.020808151
147	0x3d7f5cd4	0.062344387
148	0x3c94b849	0.01815428
149	0x3c0bf990	0.008543387
150	0xbc9208d3	-0.017826473
151	0xbcc8f9b5	-0.024533132
152	0x3d8a897a	0.06764503
153	0x3d950c2d	0.07277713
154	0xbd3737aa	-0.04473082
155	0x3da7a658	0.081860244
156	0x3cb339ed	0.021878207
157	0xbd3dbcef	-0.04632276
158	0xbd5b557b	-0.053548317
159	0x3d8e64ae	0.06952797
160	0xbba8e575	-0.0051543065
161	0xbd58fb4b	-0.052974027
162	0xbd6d5928	-0.057946354
163	0xbc45dd32	-0.012076663
164	0x3c9d7b35	0.019223789
165	0xbc7c2ece	-0.0153920185
166	0xbd2a62a8	-0.041597992
167	0x3d70d213	0.058794092
168	0x3d9884c3	0.07447197
169	0x3c2e9c49	0.0106573785
170	0x3b95db1b	0.0045732385
171	0xbc42c049	-0.011886665
172	0xbcd43cc8	-0.025907889
173	0x3c667a72	0.014067279
174	0x3d15a5c3	0.036535036
175	0x3d8fa441	0.07013751
176	0xbc908642	-0.017642144
177	0xbcdc7658	-0.0269119
178	0xbc85ba71	-0.016324254
179	0xbd6cd0ac	-0.057816193
180	0x3bebe1ae	0.007198534
181	0x3cfd3cc4	0.030912764
182	0x3d94598a	0.07243641
183	0xbcf787f3	-0.030216193
184	0x3bd02e8c	0.006353205
185	0xbdb022ab	-0.086003624
186	0x3c2c67d6	0.010522803
187	0xbd2e17e1	-0.04250324
188	0x3d2f92bc	0.042864546
189	0x3d1c7405	0.038196582
190	0x3d2a66c7	0.041601922
191	0x3d77b4f0	0.06047529
192	0xbc8e3592	-0.017359529
193	0x3d9a971c	0.07548353
194	0x3cf57768	0.029964164
195	0xbcfa4b7f	-0.030553577
196	0x3d76fa73	0.06029744
197	0x3cc871ca	0.024468321
198	0x3da188dd	0.07887433
199	0x3a1e93b5	0.0006049232
200	0xbd0f8e8a	-0.035048045
201	0xbcb960b3	-0.022629118
202	0xbccd1de2	-0.025038663
203	0x3d5846f2	0.052802034
204	0xbd886960	-0.06660724
205	0xbdaa936b	-0.08328899
206	0xbc072442	-0.008248391
207	0x3da2ce60	0.07949519
208	0x3b828791	0.003983446
209	0xbdaa612f	-0.083193175
210	0x3d6a9fa0	0.057281137
211	0xbda708c0	-0.08155966
212	0x3dafcaba	0.08583589
213	0x3d991d70	0.07476318
214	0x3d6340e6	0.055481814
215	0x3c7a3c13	0.015273112
216	0xbdacc211	-0.08435453
217	0xbd1ad566	-0.03780117
218	0xbc2f1a97	-0.010687492
219	0x3d773146	0.060349725
220	0x3c44b3e7	0.012005783
221	0x3afa1408	0.0019079456
222	0x3d3c1a3a	0.04592345
223	0xbd7e5aca	-0.062098302
224	0x3d53bb89	0.05169252
225	0xbd36e89f	-0.04465544
226	0x3c65f5f4	0.014035691
227	0xbb03f6bc	-0.0020136079
228	0x3aa78e28	0.0012783455
229	0xbda42bcb	-0.08016165
230	0xbd79536a	-0.060870565
231	0x3db1109c	0.08645746
232	0xbc9d4a65	-0.019200513
233	0x3d8e2033	0.06939735
234	0x3d53f9df	0.051751968
235	0x3d96903c	0.07351729
236	0xbd9f053e	-0.07764672
237	0xbd365be3	-0.044521224
238	0x3daec408	0.08533484
239	0x3da057f2	0.07829274
240	0x3d8bd853	0.0682837
241	0xbd17daf9	-0.037074063
242	0xbda711c6	-0.08157687
243	0x3ca44700	0.020053387
244	0xbd017acd	-0.031611253
245	0x3da7cfea	0.08193953
246	0x3c18ea2f	0.0093331775
247	0xbd295033	-0.04133625
248	0xbd67255e	-0.05643212
249	0xbccb1365	-0.024789521
250	0x3d3adbe2	0.045619853
251	0xbd8080bd	-0.06274555
252	0xbd3f73bf	-0.046741243
253	0xbced5966	-0.028973293
254	0xbd9b6f1d	-0.075895526
255	0x3db3ae35	0.08773462

fc3.bias f4 [18]
0	0xbd9697da	-0.07353182
1	0xbd4f757f	-0.050649162
2	0x3d234b31	0.03986663
3	0xbd37ae26	-0.044843815
4	0x3d05a132	0.03262443
5	0x3d63e17e	0.055634968
6	0xbc6847e1	-0.0141772935
7	0xbc01e314	-0.007927675
8	0x3c46bbab	0.0121297045
9	0xbb8a4224	-0.0042193104
10	0x3cc3f803	0.023921972
11	0x3daba120	0.083803415
12	0xbcc3d705	-0.02390624
13	0xbd92dc97	-0.071709804
14	0x3c34f039	0.011043602
15	0x3b03cf7d	0.0020112686
16	0x3d4e7696	0.05040606
17	0xbd42a6f7	-0.04752251
